src/rl/networks/most_recently_saved_network.pkl (torch, 31717 bytes, 6 tensors)

weight f4 [64, 34]
000000 41 86 5b 3f f0 06 9a 3e 96 e6 6f 3e 9e 3a 3f be
       0.8575173 0.30083418 0.23427805 -0.18674704
000010 f9 50 3a 3d 2f f9 a9 be 1c fb ac 3d ac 86 bf bd
       0.045487378 -0.33197924 0.08446333 -0.093518585
000020 8a 09 e6 3f 6e df 9d be b0 48 98 bc 49 e7 1d 3d
       1.7971661 -0.30834526 -0.018589348 0.03855065
000030 23 ef 3b bf 91 79 7b bd 87 61 ec 3e e6 f3 7f bd
       -0.7341177 -0.06139523 0.46168157 -0.06248846
000040 a0 8a 4f bf 7e 69 6a be 5b ae 25 3e de 15 4c 3b
       -0.810709 -0.22891805 0.16179793 0.0031140964
000050 c9 3a 0e 3f a4 16 a8 3e bf b0 86 3e 8e cb 83 bc
       0.5555845 0.32829773 0.26306722 -0.016088273
000060 83 49 99 3e 04 25 90 3e e6 28 c7 3e 61 d6 1c 3d
       0.29938897 0.2815324 0.3889839 0.038290385
000070 1e 74 2e 3f 87 17 2e 3e 41 af d4 3d ba bf 3b 3f
       0.6814593 0.17001162 0.103849895 0.73339427
000080 5d aa e9 bd b3 8d 04 3e 41 a4 c2 3f 9f 9f 49 3f
       -0.11409447 0.12944679 1.5206376 0.7875919
000090 19 89 3b 3f bc 1d a7 3d b4 17 9a 3c 80 49 db 3f
       0.7325607 0.08159968 0.01881013 1.7131805
0000a0 34 21 cb 3d 20 53 e0 3d ee b8 e1 3d ca 97 d4 3f
       0.09918442 0.10953355 0.11021601 1.6608822
0000b0 fe 9c 20 be 00 b1 e4 3d 97 3b 38 3e 15 c6 9f 3f
       -0.15684888 0.111665726 0.17991482 1.2482325
0000c0 07 d2 7e 3f 2c 6e 79 3e 98 5b 9c 3d a4 f3 8f 3f
       0.99539226 0.24358433 0.076346576 1.1246228
0000d0 84 16 7b 3f dd f0 32 3e 64 90 b8 3f fa 58 53 3f
       0.9808123 0.17474695 1.4419065 0.8255764
0000e0 38 14 89 3f b2 50 63 3e 27 f0 ca 3f 9c 9f 2d 3f
       1.0709295 0.22198752 1.5854539 0.6782167
0000f0 76 84 7d 3f f8 19 ca 3d 9e bd b8 3f 7d bc 49 3f
       0.99030244 0.098682344 1.4432867 0.78803235
000100 a9 94 2a 3f 9b d6 3f 3f b0 31 9f 3f c6 5d 8a 3f
       0.6663309 0.74936837 1.2437038 1.0809867
000110 88 17 61 3f 9c 36 ac 3e 44 85 98 3e 4f f2 4f 3d
       0.8792653 0.33635414 0.29789174 0.050768193
000120 11 da e8 3d fd ed c5 3d 88 f6 af bd 33 9c 1b 3d
       0.11369718 0.09664533 -0.08591944 0.03799076
000130 5b e4 38 40 34 5c 1c 3e f9 bd 12 3f ee e2 22 3b
       2.8889377 0.15269548 0.57321125 0.00248545
000140 39 85 0c bd d4 e2 4e 3e bf 38 65 3e 48 e0 06 3d
       -0.03430674 0.20203716 0.22384928 0.032928735
000150 2a 27 50 bd f6 37 d0 3e b1 07 e2 3d a3 93 45 3d
       -0.0508186 0.40667695 0.11036623 0.0482365
000160 fc fa 8c 3f 39 bc dc 3e cf e8 c3 3e 86 5e 3d 3d
       1.1014094 0.43112352 0.38263556 0.046232723
000170 4f bc 59 3f 1a c1 95 3d 7a 37 12 3e 1b 7e 80 be
       0.8505296 0.07312222 0.14278975 -0.2509621
000180 21 49 76 3f ae 3a 85 3e 8d 46 da 3e 08 3b 48 3f
       0.96205336 0.26021332 0.4263195 0.78215075
000190 4a 44 fa 3e 3f e3 17 3f 0d 1a 32 be 19 be cb 3e
       0.48880225 0.59331125 -0.1739275 0.3979347
0001a0 70 5a a1 3e e7 0d 41 bd b4 bd e8 3d b7 fd 13 3f
       0.3151431 -0.0471324 0.11364308 0.57809013
0001b0 f0 8b 04 be dc d1 ca be 5f ab 04 be a7 53 d7 3e
       -0.12944007 -0.39613235 -0.12955998 0.4205601
0001c0 5d 7e 3e 3e e7 49 ad be e2 f7 e5 3e 2c d2 20 3f
       0.18602891 -0.33845446 0.44915682 0.62820697
0001d0 2b ea 84 3e e7 e8 98 be b2 b2 f5 3e 56 2b 18 3f
       0.25959906 -0.2986519 0.47987896 0.59441125
0001e0 45 59 5f 3e 38 ea 88 be 80 d7 05 be 87 d7 ec 3e
       0.21811397 -0.26741195 -0.13070488 0.46258184
0001f0 75 0f 3a 3e f4 d7 93 be 23 fa 07 be 22 29 af 3e
       0.18169959 -0.28875697 -0.13279013 0.3421107
000200 43 fe 8b 3e 98 1c 00 bf f1 46 28 be fb 84 86 3e
       0.27342424 -0.5004363 -0.16433312 0.2627333
000210 aa 00 bd 3e d2 ba 9c be a4 2f 5e 3e 12 f0 34 3e
       0.3691457 -0.30611283 0.21697861 0.17669705
000220 65 ea 16 3d 38 9c 39 bd ed 67 5a 3f 11 53 0e 3e
       0.03684463 -0.045314997 0.8531483 0.13898875
000230 05 2d bd 3c 89 47 0f 3f e4 4c 98 bc f3 cd c6 bd
       0.023092756 0.5596853 -0.018591352 -0.097072504
000240 f8 de 2e 3f a8 79 a5 3e d9 4f 64 bd 78 bb a3 bd
       0.68308973 0.3231938 -0.05574021 -0.07994741
000250 ce db 9e bf 10 55 49 3f 37 12 ca 3e 1a b2 08 bd
       -1.2410829 0.7864542 0.39467022 -0.033372976
000260 01 43 96 bf 7c 6d 71 3f 11 c9 2a 3e ee c8 e2 3b
       -1.1739198 0.94307685 0.16678263 0.0069209253
000270 53 5e fd bd 05 f8 5d 3f 17 ac d8 3e cb 4b 23 bd
       -0.123715065 0.8670657 0.42318794 -0.039867204
000280 6f e0 a4 be cc 70 a4 3e 11 c0 86 3e 99 2e 22 3e
       -0.3220248 0.32117307 0.2631841 0.15838088
000290 95 10 c1 bd e3 99 0a 3e 5c 54 28 3f 48 0e 0a 3f
       -0.09426991 0.13535266 0.6575372 0.5392804
0002a0 61 93 0a 3f ec cc 13 3f b7 e7 c6 3e 0f e8 64 be
       0.5413113 0.5773456 0.3884866 -0.22354148
0002b0 ac 60 05 bf 0b a2 5a 3d 1f 25 af 3b b0 8b 26 bf
       -0.52100635 0.053377192 0.0053450014 -0.65056896
0002c0 ec 5d f6 bd 95 70 75 3e 34 22 04 40 66 09 42 bf
       -0.12029633 0.23968728 2.0645876 -0.7579559
0002d0 63 f9 85 bf cc 70 25 3e 9a cc 85 bf 08 97 4a bf
       -1.0466732 0.1615631 -1.0453064 -0.79136705
0002e0 df ec 00 bf 49 b1 04 3e b0 22 92 bf ce 16 37 bf
       -0.50361437 0.12958254 -1.1416836 -0.7151917
0002f0 00 b0 9a be 87 c9 0d 3e 81 7e d4 be f9 5a a4 be
       -0.30212402 0.13846408 -0.41502765 -0.32100657
000300 6f 30 0a bf be 30 36 3e 94 65 c9 be e6 a1 4b bd
       -0.53980154 0.17792031 -0.3933531 -0.049714945
000310 1a ff 3a bf 61 2e a2 3f 80 75 30 3d 07 02 8f be
       -0.73045504 1.2670404 0.043080807 -0.27931234
000320 4a f9 19 bf 3f e4 ea 3e b4 a7 8d be 34 e7 31 be
       -0.6014601 0.45877263 -0.2766701 -0.17373353
000330 55 3d d4 3e 38 f2 2a 3e c9 34 45 3e ac 86 2d 3e
       0.41453043 0.16693962 0.19258417 0.16945904
000340 47 d9 7d bd 20 2f 60 3e fe c6 da 3c 97 6d 85 3d
       -0.06197479 0.21892977 0.026706215 0.06515043
000350 4f 77 42 c0 67 cd 1e bd 82 81 e2 3f f0 33 af 3d
       -3.038532 -0.038770106 1.7695773 0.08554828
000360 0e b9 a3 3f b1 95 18 3f 4f 05 af bb 4e ba d7 3d
       1.2790849 0.5960341 -0.005341209 0.10533582
000370 3e a1 c0 3f 12 41 26 3f b0 4e e9 3d dd 85 b4 3e
       1.5049207 0.6494304 0.113919616 0.3525838
000380 22 7d 0b 3f 93 d5 d6 3e a6 f4 09 bd 9f bf 46 3e
       0.5448781 0.4195982 -0.03368058 0.19409035
000390 5c 12 83 3e 69 19 3d 3e 27 7a db 3d ea e5 0d 3e
       0.25599945 0.18466724 0.10716658 0.13857237
0003a0 1b 23 03 3f 1f 26 aa 3e 4b 2a a4 3d ee e6 06 3f
       0.5122544 0.3323221 0.08015879 0.5269612
0003b0 d0 c1 b0 3d fa c9 a1 3e a3 5f fc be f5 e1 26 3d
       0.08630717 0.31599408 -0.49291715 0.040742833
0003c0 b7 a5 8b be a4 15 9a 3c 49 ab 3e bd 30 41 81 be
       -0.27274868 0.018809147 -0.04655007 -0.25245047
0003d0 f8 fb 11 be 9d e8 8b be e8 f9 8c 3c a9 90 60 3d
       -0.14256275 -0.27325907 0.017209008 0.05482546
0003e0 4a 16 61 3e 8f 96 4d be e6 3d 26 3f 92 10 97 bc
       0.21981159 -0.20076965 0.649382 -0.018440519
0003f0 8b af 1d be d2 e3 d0 bd 0f f7 09 3f e1 29 4e be
       -0.15398996 -0.10199703 0.53892606 -0.20133163

bias f4 [64]
000000 98 f8 5e be a9 3c d8 3f cf 9d 30 3e b0 61 cf 3e
       -0.21774518 1.6893512 0.17247699 0.40504217
000010 16 d4 f0 3e d8 15 37 bf 72 14 27 3e fb 06 25 be
       0.4703681 -0.71517706 0.16316393 -0.16115944
000020 b5 0d 54 3f 5d 70 0b 40 95 5f ba 3e 0b b4 01 bf
       0.82833415 2.178733 0.36401048 -0.5066535
000030 b0 92 bd 3d 03 79 f6 bd 5e f2 b2 3f 56 c4 8d 3f
       0.09256494 -0.120348 1.3980215 1.1075542
000040 64 16 2d 3e aa 3a c2 be 49 50 57 3d f9 8a 0a 3d
       0.16903073 -0.37935382 0.0525668 0.03382394
000050 39 83 ee 3e c6 ae 41 bf 95 d1 f6 3f 98 a7 2b 3f
       0.4658449 -0.7565731 1.9282709 0.670526
000060 62 d6 d1 3e 7a 42 a1 be 5c d9 84 3b 0d d2 1c 3e
       0.40983874 -0.3149603 0.0040542316 0.15314503
000070 68 ba 16 bf 0f 96 bb 3f 51 68 de 3e 23 cb bb 3f
       -0.58878183 1.4655169 0.43438962 1.4671367
000080 5e d0 a6 3f fc 38 40 bf 78 77 12 be 29 d6 5a 3f
       1.3032339 -0.7508695 -0.14303386 0.8548303
000090 07 12 f7 3f 4c a2 5a 3f 4f 97 a8 3f e3 18 a0 be
       1.9302377 0.85403895 1.3171176 -0.31268987
0000a0 bc 0c 1f bd 16 ac 05 bf 4e b0 31 bf 1f bc 86 bf
       -0.038830504 -0.5221571 -0.69409645 -1.052616
0000b0 6e 80 1c bf eb 90 87 3f 48 c2 48 be 56 3f ed 3f
       -0.6113347 1.05911 -0.19605362 1.8534954
0000c0 57 8a 94 3d 8d f9 00 40 81 07 66 bc 94 20 8b 3d
       0.07252949 2.0152314 -0.014039875 0.06793323
0000d0 fe fc b5 3e 28 22 12 bf 0c 0f 26 3f 9b f4 a3 3f
       0.3554458 -0.5708337 0.6486671 1.2809023
0000e0 a4 a3 6c bc a5 c0 99 3d 86 8f 4e bf 7f f7 2a bf
       -0.014443312 0.07507447 -0.8068775 -0.667839
0000f0 bc 8d 00 bf 67 e0 ec bd 47 13 29 bf 88 be d0 3f
       -0.5021627 -0.11566239 -0.6604504 1.6308146

weight f4 [64, 64]
000000 71 99 ab bf 94 d4 0a 3f 93 07 eb bf bc 91 41 3e
       -1.3406202 0.5423062 -1.8361686 0.1890325
000010 a2 84 b1 bf cd ef 0f bf 78 82 6c bf 25 9e eb 3e
       -1.3868601 -0.5622528 -0.9238658 0.46019092
000020 f0 d4 15 3e cc e2 06 3d b4 08 8a bf a8 bb b3 bf
       0.1463201 0.032931134 -1.0783906 -1.4041643
000030 37 c3 00 3f 60 7b ef bf b8 6d 89 3f 95 25 76 3e
       0.50297874 -1.8709526 1.0736609 0.24037774
000040 5d 4e 2f c0 71 f2 fb bf 91 1f d7 bf 7a 2b 3d c0
       -2.739158 -1.9683362 -1.6806508 -2.9557786
000050 38 7b d9 3e f9 54 fc bf a2 45 a8 3e ac 13 ac 3d
       0.4247682 -1.9713432 0.32865626 0.084021896
000060 75 7d d8 bf 64 a6 ea bf c5 b8 07 c0 f7 a0 14 c0
       -1.6913286 -1.8332028 -2.1206524 -2.3223245
000070 aa 85 6f bf ad 53 4b 3f 34 62 05 c0 f8 d5 3f 3e
       -0.9356333 0.79424554 -2.0841188 0.18733966
000080 40 d8 ff 3d a6 bb bc bf d1 92 e4 3e 0f a9 0e 3f
       0.12492418 -1.4744766 0.44643262 0.5572671
000090 78 76 cf 3e ed 0a a4 3f e1 6e 20 3c 94 a5 96 bf
       0.40520072 1.2815834 0.009792061 -1.176928
0000a0 3d b5 ea bf 9e e3 dd bf c6 53 08 c0 ff f7 ec be
       -1.833656 -1.7335088 -2.1301131 -0.46282956
0000b0 66 0c 0a bf 4b ca 5b 3f ff c5 06 c0 87 66 9d 3e
       -0.5392517 0.8585555 -2.1058347 0.30742285
0000c0 6e d1 6e 3f 17 e7 3b 3f 79 13 50 3f ab 98 4d 3c
       0.93288314 0.7339949 0.8127971 0.012548606
0000d0 f9 85 b6 bf 9d 28 02 c0 25 c4 2f 3f 84 9d 3d 3e
       -1.4259635 -2.0337288 0.6865867 0.18517119
0000e0 4a 05 74 3e cd b3 25 bf fa 7c 43 bf 86 d8 ec bf
       0.23830143 -0.6472748 -0.76362574 -1.8503578
0000f0 6b 08 71 bf 71 4e 24 3f 01 56 bf bf 30 18 42 3f
       -0.9415347 0.6418219 -1.4948121 0.7581816
000100 58 99 b5 bf 10 fa 4c 3e a3 d3 fc bf 80 35 c9 3e
       -1.4187422 0.20017266 -1.9752086 0.3929863
000110 dc b9 c2 bf c1 08 9e bf 0a 9a ea bf 73 26 7b 3e
       -1.521297 -1.2346421 -1.8328259 0.24526386
000120 92 bf be 3d c2 c4 72 3e ee ec 90 bf b4 d7 6b bf
       0.09313883 0.2370787 -1.1322305 -0.9212601
000130 45 6c 61 3e d5 c2 0d c0 48 bf 50 3f a8 8a f9 3d
       0.22013958 -2.2150166 0.8154187 0.1218465
000140 fa 32 26 c0 1e 79 1e c0 83 a1 d2 bf f5 85 1b c0
       -2.5968614 -2.4761424 -1.645554 -2.430051
000150 a7 bf ca 3e 70 a4 05 c0 5d cc 47 3d 7a 18 a6 3e
       0.39599344 -2.0881615 0.04877888 0.3244055
000160 cb bd bc bf 8d 9b 0e c0 27 82 bd bf a4 61 f5 bf
       -1.474542 -2.228244 -1.4805344 -1.9170423
000170 8b c0 e9 bf 13 c3 51 3f a6 bb fc bf 82 41 94 3e
       -1.8261884 0.81938285 -1.9744766 0.28956228
000180 54 f8 fd 3d 3d fd 11 c0 d1 76 3e 3e ff b4 07 3f
       0.124008805 -2.2810814 0.18600012 0.53010553
000190 77 70 ac 3e de b8 8c 3f 3c c5 0c 3e a2 8a 91 bf
       0.33679554 1.0993917 0.13747114 -1.1370432
0001a0 8e 17 b9 bf b8 ab 03 c0 52 cd 14 c0 51 ae 16 bf
       -1.4460313 -2.0573559 -2.3250318 -0.58859736
0001b0 44 80 83 bf a8 f9 35 3f 0f 0b fe bf 4f 2d 8a 3e
       -1.0273519 0.7108407 -1.9847125 0.26987693
0001c0 4c c7 24 3f 74 05 61 3f 78 bd c1 3d 15 48 26 bf
       0.643666 0.87898946 0.094599664 -0.6495374
0001d0 e1 f3 71 bf 64 bf 0f c0 43 bd 53 3f 51 f3 0d 3f
       -0.94512755 -2.2460566 0.82710665 0.55449396
0001e0 b5 21 65 3f b3 26 68 bf b1 77 86 bf 59 80 02 c0
       0.8950456 -0.9068405 -1.0505277 -2.0390837
0001f0 dc d8 5d bf af 69 dc 3e 42 0f b6 bf 62 e9 26 3f
       -0.86659026 0.4304938 -1.4223406 0.65199864
000200 d5 97 98 bb 81 a2 88 bd d1 70 88 bb 80 c9 dd bd
       -0.0046567717 -0.0667162 -0.0041638394 -0.10829449
000210 df cf 9e bd 98 fc a6 3d 18 97 f6 bd 12 3c a5 bd
       -0.07754492 0.08153647 -0.120405376 -0.08068098
000220 06 8d 8a bd 42 0a 19 be e2 58 e1 3c c8 08 7c 3d
       -0.06765179 -0.1494532 0.027508203 0.061531812
000230 80 5e 8d 3a 96 47 d2 bd 0c db 88 3d 5e f3 78 bd
       0.001078561 -0.1026756 0.06682405 -0.060778968
000240 51 f1 01 be d5 17 58 3d f9 c9 02 be de be 30 3d
       -0.12689711 0.052757103 -0.12772359 0.043150775
000250 6c 64 d2 3d c9 96 ae bd 5a 46 20 bd b5 e3 f7 3c
       0.1027306 -0.08524854 -0.039129592 0.030259946
000260 5c d5 e2 bc 49 98 8f 3d f6 df 50 3d e4 66 a0 bd
       -0.027689628 0.07011468 0.050994836 -0.07832125
000270 bb 87 4f bb b0 53 8e bd c9 78 76 3d 91 ec 0a be
       -0.0031666595 -0.06949556 0.060173783 -0.13566805
000280 e0 1f b1 bd 7c 64 7e bb 50 b9 24 3d 42 7e 14 3d
       -0.08648658 -0.0038817218 0.04021579 0.03625322
000290 62 98 aa 3d f4 e3 3b bd 48 91 79 bd 0e d0 3d bd
       0.08329846 -0.04587169 -0.060929567 -0.046340995
0002a0 af 98 d8 bd a9 e5 04 be d8 49 ca bd 0d 83 14 be
       -0.10575997 -0.12978233 -0.09877366 -0.14503117
0002b0 63 83 8f bd 05 eb 22 3d c2 86 34 bd 04 d4 a8 bd
       -0.07007482 0.039774913 -0.044073828 -0.08243564
0002c0 c6 3a d8 bd 76 68 dc 3c 24 93 23 3d 4f ed 4a 3c
       -0.10558085 0.02690528 0.039935246 0.01238568
0002d0 59 df bd 3d 5b 95 85 bd 5a 27 86 bd 16 42 08 be
       0.09271116 -0.06522628 -0.065504745 -0.1330646
0002e0 da 66 28 3c b7 ef 93 3c 3d 3c a0 3c 9b c7 6f 3d
       0.010278428 0.01805864 0.019559974 0.058539968
0002f0 17 b7 1b 3d 1c d4 18 bd d2 ad 9d bd 0e 4a 07 3c
       0.038016405 -0.03731166 -0.07699169 0.008257402
000300 78 5e 37 bd 21 07 b3 bd f4 21 d2 bc f2 44 57 bb
       -0.044767827 -0.08741594 -0.025650956 -0.003284749
000310 04 93 2e 3c 4f c4 9a bd 63 ac 67 be aa e7 8d bd
       0.010655168 -0.07556974 -0.22624354 -0.06928952
000320 85 40 94 3e 53 e2 d6 3d d9 61 8e be 4f 9a 71 be
       0.28955474 0.10492387 -0.27809027 -0.2359402
000330 3d 1a ea 3c c0 fb ae 3d 7e 1d 44 bd 14 e2 d0 3c
       0.028576965 0.08544111 -0.04787969 0.025498427
000340 45 2a 0e bd 1a ee 18 bd 14 21 95 3d 25 1e 02 be
       -0.03470828 -0.037336446 0.072817 -0.12706812
000350 f6 32 a7 bd bd 39 a6 bd 0f b1 ee bc f8 1c f0 bd
       -0.08164017 -0.081164815 -0.029137162 -0.11724275
000360 e5 3f 14 3c 21 f4 43 be dd 6b 3b 3d b2 ac c5 bc
       0.009048437 -0.19136097 0.045757163 -0.0241302
000370 cc 17 7c 3b 88 6e 8b bc 55 18 8a 3d 6b f4 0b 3e
       0.0038466332 -0.017020479 0.06742922 0.13667457
000380 e2 6b 90 bd ca e4 c7 bd a4 8c 8b 3c 53 d1 cd bd
       -0.07051827 -0.09760435 0.017034836 -0.10049691
000390 09 ef 8f ba 5c 01 7c bd 54 d6 75 be 69 5c 28 bd
       -0.0010981272 -0.061524734 -0.24007541 -0.041103754
0003a0 5e 4c ec bd c9 18 a8 bd fc 5c 5a bd e8 de 4d bc
       -0.115380034 -0.082078524 -0.053311333 -0.012565352
0003b0 f0 e9 38 3c 0c 66 4e be 18 dd 86 bd 35 ba 8f bc
       0.011286244 -0.20156115 -0.06585139 -0.017544845
0003c0 aa c7 b6 bd dc 4d 83 3d ec d4 a9 bd 15 68 61 bd
       -0.08924802 0.06411335 -0.08292565 -0.0550309
0003d0 db 16 fc 3d 48 20 8b bd 81 c7 80 be f3 d5 28 3e
       0.12309047 -0.067932665 -0.2515221 0.16487865
0003e0 dd 5c 93 3d d5 58 ae bd a8 e7 dd bd 3b 05 28 be
       0.07195447 -0.08513037 -0.108352005 -0.16408245
0003f0 d8 0a e5 be 38 c6 d5 bd 31 62 35 3b 90 27 05 3d
       -0.44734836 -0.10438198 0.0027676935 0.032508433

bias f4 [64]
000000 e7 29 5e 3f 3d f7 10 3f 53 17 06 be 24 ac 2d bd
       0.8678269 0.56627256 -0.13094835 -0.042400494
000010 10 bb fc bd 6c 3b 8d 3d b6 4d 7b 3b 01 33 0d 3f
       -0.12340367 0.068960994 0.003834588 0.5515595
000020 41 08 c7 3e fe 12 f8 be 78 eb c6 3e 7b 9b 77 3d
       0.38873485 -0.4845199 0.38851523 0.060451012
000030 99 d7 6c be f5 78 da 3e c8 6c b7 3d 11 65 25 be
       -0.23129119 0.42670408 0.08956295 -0.16151835
000040 ac bf 64 bd c2 ff 4c be 37 fc fc be e2 4e ec 3e
       -0.055846855 -0.20019439 -0.49411175 0.46153933
000050 1b 4e a4 3f 80 18 94 bb 10 15 77 3f a8 96 90 be
       1.2836336 -0.004519522 0.96516514 -0.28239942
000060 da d9 51 bf dd 35 d7 bd b0 9b 20 be 66 cc 01 3c
       -0.8197304 -0.105083205 -0.1568439 0.007922268
000070 74 46 af bd 55 49 92 bd d4 7c 8e 3f 2e 33 10 be
       -0.0855836 -0.07142893 1.1131845 -0.14082024
000080 5d 73 00 bf 5a 54 0d 3e 4d d3 b6 3e f8 a1 ff 3e
       -0.5017603 0.13801709 0.35708085 0.4992826
000090 77 44 1b bf 32 b9 9d be 17 29 00 3e 6c 4e d2 3e
       -0.60651344 -0.30805355 0.12515675 0.41075456
0000a0 bb 4f 69 3e ac 2d de 3d 52 2f 64 be 5f 13 08 bf
       0.22784321 0.10848555 -0.22283676 -0.5315456
0000b0 de 26 fe 3c a4 e7 2a 3f 14 20 9d bd 4d 37 d4 be
       0.031024393 0.66759706 -0.07672134 -0.4144844
0000c0 15 4a b9 bb 06 06 66 3f 6d 1d 3d 3f 98 64 05 3e
       -0.005654583 0.8985294 0.73873025 0.13026655
0000d0 1a a6 6e 3f a0 33 c7 3e 26 b0 be 3e 6c ef 82 3f
       0.932222 0.38906574 0.37243766 1.0229316
0000e0 76 02 e4 3e 75 7c 56 3d 68 90 13 be 59 75 a0 bd
       0.44533128 0.052364785 -0.14410555 -0.07834882
0000f0 cf 72 0a bd 7f 67 85 3e 1b 6a c2 3e 82 1c 81 3f
       -0.033800896 0.26055524 0.37971577 1.0086825

weight f4 [12, 64]
000000 d3 04 13 40 78 40 1a 40 37 24 c7 3b 1f 87 4f be
       2.2971694 2.4101849 0.006077315 -0.20266388
000010 78 3d bc 3d 5e a8 09 3b 07 8c 33 3f e2 e3 da 3f
       0.09191412 0.0021004896 0.7013554 1.7100794
000020 8d d5 c5 3f 44 6f 82 be 5a 13 16 40 0a ff 9b be
       1.5455796 -0.25475514 2.3449311 -0.30468017
000030 fb ae cf be 13 a3 26 3f 72 6e 14 3d 1d 12 b9 be
       -0.40563187 0.6509258 0.03623814 -0.36146632
000040 1f cd cb be 83 6c 9d be b1 2a b9 be ff 00 5e 3e
       -0.39804932 -0.3074685 -0.36165383 0.21680067
000050 63 5b 7f 3f bd 7f 47 3e d1 fb 3e 3f cc 19 ae be
       0.9974882 0.19482322 0.7460299 -0.34004056
000060 63 11 e3 be 79 6a a4 3d 04 41 ba 3d 5d 18 5c be
       -0.44349203 0.080281205 0.09094432 -0.21493669
000070 b2 c5 67 be 2d ef 2f be 61 11 6f 3f 91 ec 63 be
       -0.22634009 -0.17181082 0.93385893 -0.22258212
000080 a9 7f e4 be 13 08 73 be c6 bd 1a 40 cf e0 18 40
       -0.44628647 -0.23733549 2.4178329 2.3887212
000090 c5 7a 23 be 76 4a ad bd 10 fd e9 3e 52 f0 0f 3f
       -0.15964802 -0.08461468 0.45700884 0.56226075
0000a0 3c e8 aa be 65 db d1 3e 6e c2 c5 be 00 01 77 3e
       -0.33380306 0.40987697 -0.386249 0.24121475
0000b0 fb de d3 bd 77 5c 44 3f f6 b8 f6 3d 63 02 b0 be
       -0.103452645 0.7670359 0.12046997 -0.3437682
0000c0 95 97 b8 bd 10 f9 3a 3f 16 d2 4e 3f ff 34 a2 be
       -0.09013287 0.7303629 0.80789316 -0.31681058
0000d0 4f 39 3b 3f 30 24 2c 3f 36 d0 4a 3f 6e 68 1b 3f
       0.7313432 0.6724272 0.79223955 0.6070622
0000e0 72 10 ce 3f 6d 5a 32 be dc 3a f1 be 6d 86 3c bf
       1.6098769 -0.17417307 -0.4711522 -0.7364262
0000f0 03 87 90 bd b8 38 bb 3f 68 d1 34 3f 99 81 04 40
       -0.070570014 1.4626684 0.7063203 2.07041
000100 4d a4 12 40 8a 17 16 40 41 77 14 3d 43 2e 07 be
       2.2912781 2.3451867 0.036246542 -0.13201241
000110 2e 2c ad 3d a8 61 0b 3e 2d 01 5b 3f d7 e8 e1 3f
       0.08455692 0.13611472 0.8554867 1.7649182
000120 49 42 df 3f 64 92 13 be f4 ce 05 40 79 ac aa be
       1.7442104 -0.14411312 2.0907564 -0.3333471
000130 bb 1f c1 be 50 49 21 3f 3b 05 4d 3c 50 71 bb be
       -0.3771952 0.6300249 0.012513454 -0.36609888
000140 b8 74 fe be 0d 9c 84 be a8 d1 f3 be bc a1 0b 3e
       -0.49698424 -0.25900307 -0.47620893 0.13635916
000150 b6 48 8d 3f 74 8e 2a 3e 9c b6 19 3f 66 2e cd be
       1.1037815 0.16655904 0.60044265 -0.40074462
000160 cf db d7 be 13 57 0c bd 21 a1 8a 3d ee 2f 8e be
       -0.42159888 -0.034262728 0.06769014 -0.27770942
000170 eb e5 a9 be d0 ac 97 bd 7b 64 6b 3f 8e 0b aa be
       -0.33183226 -0.07406008 0.91950196 -0.3321194
000180 f2 59 8c be 9a 77 6e be c8 f2 26 40 3a ca 1a 40
       -0.27412373 -0.23287812 2.6085682 2.418593
000190 b8 c8 00 be 81 50 0c be 9d db ca 3e 69 de 1c 3f
       -0.12576568 -0.13702585 0.39620677 0.6127687
0001a0 77 ce b8 be 50 15 ed 3e b9 31 bd be 86 57 2e 3e
       -0.3609502 0.46305323 -0.36951998 0.17025575
0001b0 d2 64 fe bd 86 94 47 3f 20 8b e1 3b f6 24 b5 be
       -0.12421574 0.77961004 0.00688304 -0.3537976
0001c0 44 5e d9 3d e6 38 32 3f 63 a5 55 3f 83 26 9f be
       0.10613683 0.6961807 0.83455485 -0.3108407
0001d0 c2 2f 2f 3f d3 bd 20 3f df ec 3a 3f 2e 36 29 3f
       0.6843225 0.6278965 0.73017687 0.66098297
0001e0 19 c4 df 3f b1 8c 26 bd 6e 9f b9 be b7 63 55 bf
       1.7481719 -0.040661518 -0.36254448 -0.8335528
0001f0 76 44 13 bd 50 5f bc 3f 4d 13 41 3f 41 06 05 40
       -0.03595396 1.4716587 0.75420076 2.0785067
000200 89 e3 16 40 54 fd 1f 40 d3 76 6e bc d8 c3 c4 bd
       2.3576376 2.499837 -0.014554697 -0.09607667
000210 6a 4e 99 bd 94 7f bf 3d 8a eb 52 3f d0 77 d9 3f
       -0.074856594 0.093505055 0.82390654 1.6989689
000220 d2 42 df 3f 37 e3 0f be 4e 58 09 40 71 2f bb be
       1.7442267 -0.1405152 2.1460147 -0.36559632
000230 6c 7e d6 be 4b a9 32 3f 6a 01 a2 3d 2e 97 c1 be
       -0.41893327 0.6978957 0.07910426 -0.37810653
000240 4c d4 cc be 1c f3 a4 be b9 5f da be f5 c2 c6 3e
       -0.4000572 -0.32216728 -0.42651156 0.38820615
000250 8f 7c 88 3f 41 4e 1f 3e 18 fa 39 3f 63 09 9b be
       1.0663012 0.15557195 0.7264724 -0.302806
000260 3e c4 fb be 7c 12 42 bd 2f 67 ed 3d b7 cc 64 be
       -0.49173158 -0.04738091 0.11591946 -0.22343718
000270 81 45 61 be db f8 54 be 6a 57 6a 3f b5 db a3 be
       -0.2199917 -0.20798056 0.91539633 -0.3200356
000280 de 74 d8 be 18 47 74 be 78 eb 23 40 be e4 17 40
       -0.42276663 -0.23855245 2.5612469 2.3733363
000290 d1 71 e2 bd 7f 30 a7 bd b0 8e 01 3f 31 59 19 3f
       -0.11056865 -0.08163547 0.5060835 0.5990172
0002a0 fb 2d b2 be 2b 73 c1 3e b2 5e 9a be 87 75 5a 3e
       -0.34800705 0.3778318 -0.30150372 0.21333896
0002b0 76 19 07 3c 42 67 4f 3f 5e 4d a1 3d b2 d4 d9 be
       0.008245816 0.81016934 0.07876085 -0.42545086
0002c0 09 38 89 bd 61 7f 22 3f c3 ec 44 3f 32 8d b7 be
       -0.06700141 0.63475615 0.7692377 -0.3584991
0002d0 6d 0e 49 3f c8 b1 14 3f 73 3c 3b 3f 99 bb 1c 3f
       0.78537637 0.5808377 0.73139113 0.6122375
0002e0 85 4c cb 3f 9f 13 97 bd 03 60 d2 be 58 2c 4c bf
       1.5882727 -0.07376789 -0.41088876 -0.79755163
0002f0 61 6d ca 3c cf a0 c3 3f cc fb 30 3f c3 68 f8 3f
       0.024710359 1.528345 0.6913421 1.9406971
000300 f2 e1 0c 40 7a 24 17 40 4a 72 d9 bd 49 93 ee 3c
       2.2012906 2.3616014 -0.10617502 0.029122965
000310 ca 19 ed 3b 5d 58 21 3d a5 30 53 3f 69 54 d3 3f
       0.0072357403 0.03939091 0.824961 1.6510135
000320 bb 4d cd 3f ff ee 5a be 45 5b 0c 40 28 77 ac be
       1.6039346 -0.21380232 2.1930707 -0.3368466
000330 11 d2 87 be 6f 22 2c 3f 76 19 45 3d e0 5a b8 be
       -0.26527455 0.6724004 0.048119985 -0.36006832
000340 69 5b bf be 72 ab ee be eb 71 a2 be f0 de 06 3e
       -0.37374428 -0.46615177 -0.31727538 0.13170981
000350 13 cc 8a 3f bc 00 42 3e b1 fd 2a 3f 33 ff b2 be
       1.0843529 0.18945593 0.6679335 -0.34960327
000360 c4 dc 14 bf 9b 1a b5 3d 87 c2 12 bd 22 db 7d be
       -0.5814936 0.08842965 -0.035830047 -0.24790624
000370 dd 8f 6d be 1f 48 4a be 6c 56 74 3f 0b 68 5e be
       -0.2319941 -0.19754075 0.9544437 -0.21719377
000380 70 3c 8e be 10 23 94 be 61 40 1d 40 e8 40 19 40
       -0.27780485 -0.28933 2.4570544 2.3945866
000390 a3 52 52 be e9 9f af bd 04 aa d2 3e fd ad 13 3f
       -0.20539336 -0.08575422 0.41145337 0.5768736
0003a0 01 be b3 be 38 c2 e0 3e ab 7d de be 0a 41 82 3e
       -0.351059 0.43898177 -0.43455252 0.25440246
0003b0 f5 8f 5f be 51 07 4b 3f bf 24 01 3d f4 19 96 be
       -0.21832259 0.7930804 0.031529184 -0.29316676
0003c0 8e ca 91 3d 31 16 2b 3f f2 28 44 3f fa b2 ad be
       0.07118712 0.66830736 0.7662498 -0.3392561
0003d0 e7 7a 24 3f 58 14 1f 3f a8 fe 3f 3f f6 6f 2c 3f
       0.64250034 0.6214042 0.7499795 0.6735834
0003e0 5d 92 d8 3f ba 52 c5 bd 33 03 ca be 1c 5b 48 bf
       1.6919667 -0.096349195 -0.39455566 -0.7826402
0003f0 26 20 0c bd ba f9 b1 3f 00 4c 44 3f 4d b6 f9 3f
       -0.034210347 1.3904335 0.76678467 1.9508759

bias f4 [12]
000000 19 18 23 3f bc 9a 07 be e2 0d e4 3f f6 65 ae 3e
       0.63708645 -0.1324262 1.7816737 0.34062165
000010 fe 72 85 3f 37 66 8d 3f ef ea 31 bc 4b bf ab 3f
       1.0425718 1.1046818 -0.010859235 1.3417753
000020 bb 9a f8 be 47 ca 31 3f 8a 53 56 3d 4f 45 bc be
       -0.4855555 0.69449276 0.052325763 -0.36771628
