src/rl/networks/most_recently_saved_network.pkl (torch, 14693 bytes, 6 tensors)

weight f4 [64, 6]
000000 74 fc b0 3f 44 04 63 3e 93 6c 6c be ae 47 0c 40
       1.3827043 0.22169596 -0.23088293 2.191875
000010 e7 fe 00 40 de 67 16 40 2e 11 28 3f 79 6a 07 3f
       2.015558 2.3500896 0.65651214 0.5289684
000020 71 b3 e9 bc ce 87 f2 3f ce 45 fe 3f 87 ee 0d 40
       -0.028527947 1.8947694 1.9865053 2.2176836
000030 8c fa 9c 3f 6f 02 3f 3f 1e af e8 bd cd 43 1e 40
       1.2263961 0.7461309 -0.11361526 2.4728882
000040 92 67 df 3f d5 8f 14 40 7d 5f 32 3f 91 d3 17 3f
       1.7453482 2.3212788 0.69676954 0.593072
000050 40 22 3e bf 58 48 15 40 e0 e3 16 40 fc 71 01 40
       -0.7427101 2.3325405 2.3576584 2.022582
000060 67 75 50 bb 2b 5a cc be 48 91 45 be 81 74 9d be
       -0.0031808258 -0.39912543 -0.19293702 -0.30752948
000070 ad 62 ea bd 24 7c a8 be e4 05 84 3f 4a 2f 15 3f
       -0.11444602 -0.32907212 1.0314298 0.5827528
000080 ab af a6 be 70 fc 1d 40 90 47 fd 3f 7c 74 16 40
       -0.325559 2.4685326 1.9787464 2.3508596
000090 af 21 c1 3f 08 30 42 3d fd d3 54 bd 55 78 db 3f
       1.5088404 0.047409087 -0.05195998 1.7146097
0000a0 5a cd 16 40 e3 92 03 40 25 b0 97 3f a4 30 1a 3f
       2.3562837 2.0558403 1.185063 0.6023047
0000b0 b9 92 42 bf 6b 39 03 40 00 50 02 40 58 a0 03 40
       -0.7600513 2.0503795 2.0361328 2.0566616
0000c0 5d 66 c3 3f 90 6a e0 3d 1d a1 4c bf 0c 8b 10 40
       1.5265614 0.10957825 -0.7993334 2.2584867
0000d0 89 9e d8 3f 3d 53 fa 3f 94 35 3b bd a5 c8 b9 be
       1.6923381 1.9556652 -0.045705393 -0.36285892
0000e0 ea f6 64 be ae 47 bc bc 53 18 a9 3d 9d 80 bd be
       -0.22359815 -0.022983398 0.082565926 -0.37012187
0000f0 66 35 8b 3f e2 ab ac 3e bf ca 86 3e a6 a8 f4 3f
       1.0875671 0.33724886 0.26326558 1.9113967
000100 dd fc e4 3f 5b 5d e2 3f 0c 27 8a be 2d ee 3b 3d
       1.7889668 1.768474 -0.26982915 0.04588144
000110 39 cc 01 3e 10 18 3a be cd ed c3 be ff d1 9c be
       0.12675561 -0.18173242 -0.38267365 -0.30628964
000120 6e 74 44 3f f0 4c 6f 3d ef 80 bd be cc 87 14 40
       0.7674016 0.058422983 -0.3701243 2.3207884
000130 f4 c3 15 40 44 9c 16 40 5a be 94 3f 9e fb 1d 3f
       2.340085 2.3532877 1.1620591 0.6171206
000140 73 14 48 bf 88 94 00 40 9a 5a d9 3f 48 01 1e 40
       -0.78156203 2.0090656 1.6980774 2.4688282
000150 fb c2 27 3f 05 e3 70 3e b0 07 1b be da fb e3 3f
       0.6553189 0.23524101 -0.15139651 1.7811234
000160 32 45 00 40 9c ad 11 40 c7 96 b2 3f c0 9e d0 3e
       2.0042233 2.2762213 1.3952264 0.40746117
000170 c8 17 84 3e d5 69 12 40 8f 3a f3 3f 41 fb dd 3f
       0.25799394 2.2877095 1.9002246 1.7342302
000180 5c c7 1b 3f 7f dc 40 3f 6b 0a 53 be 89 8c 1b 40
       0.60851073 0.7533645 -0.20609443 2.4304526
000190 24 f5 08 40 e6 41 fc 3f 13 4f 23 3f 94 73 d5 3e
       2.1399622 1.9707611 0.6379253 0.41689742
0001a0 0f 99 03 bf da 63 18 40 54 5f 09 40 58 de 0f 40
       -0.51405424 2.3810945 2.1464434 2.2479458
0001b0 c6 44 2c 3f f6 d1 0e 3f b1 ea bf be 1a c4 14 40
       0.6729244 0.55789125 -0.37483743 2.324469
0001c0 0b 73 d4 3f 6d 04 0d 40 da 50 64 3f 0f b3 14 3f
       1.6597608 2.2033951 0.8918587 0.5808572
0001d0 b3 75 02 bf 94 12 fd 3f 20 b8 0d 40 59 21 1a 40
       -0.50960845 1.9771295 2.214363 2.4082854
0001e0 8e 10 54 3f 95 58 aa 3e 67 ac 7c be 06 4f 1d 40
       0.8283776 0.33270708 -0.24675141 2.4579482
0001f0 96 3d dc 3f 3e c7 0b 40 84 ed 35 3f e9 28 b2 3d
       1.7206295 2.1840358 0.71065545 0.08699209
000200 d0 94 31 bf 70 1b 19 40 be 09 10 40 b5 ee 0e 40
       -0.69367695 2.3922997 2.2505946 2.2333195
000210 0d 7f ce bc bd 39 4a be a7 cd 0a be c6 98 44 be
       -0.025207067 -0.19748588 -0.13555013 -0.19198903
000220 ef 8a c1 be 6b a6 c6 3e ce 32 97 3f 21 5b 19 3f
       -0.3780131 0.38798842 1.1812379 0.59904677
000230 56 5b 3c bf 53 e7 03 40 36 21 fd 3f 73 bf f6 3f
       -0.7357687 2.060994 1.977576 1.9277176
000240 22 6f 9c 3f 34 5b 20 3f 0b e5 25 3e dc 02 01 40
       1.2221415 0.62639165 0.16200654 2.0157995
000250 91 ed f8 3f ed fc 13 40 63 cc 94 3f d3 46 f5 3e
       1.94475 2.3123124 1.1624874 0.47905597
000260 6c 8c 0a be a7 8d 03 40 2c ce 10 40 b9 8d 1b 40
       -0.13530129 2.0555208 2.2625837 2.430525
000270 6b 83 af 3f e5 a4 e3 3e a9 b0 a4 be ea 70 0a 40
       1.371198 0.44461742 -0.3216603 2.1631417
000280 74 0a 1a 40 8c 51 11 40 15 ec 4d 3f c4 eb 1c 3f
       2.406888 2.2706022 0.8043836 0.6129725
000290 40 1f f5 bd 32 0a 1e 40 d9 da ee 3f 9d ed 0a 40
       -0.11968851 2.4693723 1.8660537 2.1707528
0002a0 75 97 9a 3f 68 f8 b4 3e a4 82 e6 be 95 90 1b 40
       1.2077471 0.3534577 -0.45021546 2.4306996
0002b0 0e 08 19 40 d2 13 05 40 a0 f8 35 3f 54 36 f6 bd
       2.3911166 2.0793347 0.71082497 -0.12022081
0002c0 82 f4 8d 3e ca c7 cb 3f ca 92 e0 3f 4d 24 f1 3f
       0.27725607 1.5920346 1.7544796 1.8839203
0002d0 d7 df 4b 3d 54 8e 93 be 9c 5f 35 3d e5 d9 8e be
       0.049774017 -0.28819525 0.044280633 -0.27900615
0002e0 5a 58 98 be f1 83 8f be 80 60 50 3f d3 e8 34 3f
       -0.29754907 -0.2803035 0.8139725 0.7066776
0002f0 13 ad 68 bd fb 46 0f 40 34 0c 16 40 49 43 07 40
       -0.05680568 2.2387073 2.3444948 2.1134818
000300 1c 36 e1 3f 72 1e ee 3d 80 59 86 bf b9 da 00 40
       1.7594638 0.11626901 -1.0496063 2.0133498
000310 d5 4c df 3f fc 8a e0 3f 46 3d 3d 3f 92 74 58 3e
       1.7445322 1.7542415 0.7392162 0.21138218
000320 90 1a cc be 61 43 17 40 13 0c 1b 40 11 aa da 3f
       -0.39864016 2.3634875 2.422612 1.708315
000330 0e 5c 96 3f da 19 e9 3d d1 e0 14 bf c7 18 1c 40
       1.1746843 0.11381884 -0.5815554 2.4390123
000340 3e d4 0f 40 df 4e 16 40 34 2e aa 3f 25 3e fe 3e
       2.2473292 2.348564 1.329535 0.49656788
000350 b4 76 f0 be 2e e2 12 40 b7 34 13 40 e6 5d 02 40
       -0.46965563 2.295055 2.3000925 2.036981
000360 99 f9 52 3f 12 dc 48 3f c9 3c 1a bf 29 bf f1 3f
       0.82412106 0.784608 -0.60249 1.8886462
000370 2e 24 00 40 4b a0 fe 3f 16 57 49 3f 15 b9 59 3f
       2.0022082 1.9892668 0.7864851 0.8504804
000380 e8 8a a3 be a2 ed 0b 40 8b c7 da 3f b2 19 10 40
       -0.31941915 2.186379 1.7092146 2.2515683
000390 82 74 88 3f 9a 05 13 3f 1e f0 16 bf 20 3d f9 3f
       1.0660555 0.5743042 -0.5896014 1.9471779
0003a0 38 2b 10 40 de 28 00 40 a2 e0 a1 3f bf 38 3d 3f
       2.2526379 2.0024943 1.2646677 0.7391471
0003b0 9d 21 a0 3d 19 78 e1 3f 90 46 06 40 c8 51 ec 3f
       0.07818911 1.7614776 2.0980568 1.8462458
0003c0 56 e1 8d 3f 69 fc 43 3f 4c a2 d8 bd 47 a0 da 3f
       1.1084392 0.7655702 -0.10577831 1.7080163
0003d0 77 87 f6 3f 63 aa 18 40 a3 04 a9 3f d1 dc c1 3e
       1.926009 2.3853996 1.320454 0.37863782
0003e0 70 e6 92 be a9 67 f5 3f 21 fc 04 40 73 e5 0b 40
       -0.28691435 1.917226 2.0778887 2.1858795
0003f0 06 a7 79 3f aa cf 1b 3f 5c 6d ec be cc 32 18 40
       0.9752048 0.60863745 -0.46177185 2.3781004

bias f4 [64]
000000 34 9c 16 40 e7 cd 27 40 24 f4 02 40 b6 62 20 40
       2.353284 2.6219423 2.0461512 2.5060248
000010 24 7c 6b 3e 24 f0 f4 3f 2a 72 ee 3f d7 28 1f 40
       0.22996575 1.9135785 1.862859 2.4868677
000020 08 17 e9 3f 40 83 80 3e 0b f2 14 40 69 02 5b 3e
       1.8210154 0.25100136 2.3272731 0.21387638
000030 79 48 0c 40 1a f3 16 40 37 28 08 40 9e f0 f2 3f
       2.1919234 2.3585877 2.1274545 1.897968
000040 2d 83 18 40 1b 78 24 40 3e 2a 0f 40 70 ee 04 40
       2.3830063 2.5698307 2.2369533 2.077053
000050 4f 35 24 40 6d 5e 18 40 30 93 df bb 8c fb 16 40
       2.5657537 2.3807633 -0.006822966 2.3591032
000060 67 5c 0f 40 54 76 13 40 5c 52 09 40 df 25 1c 40
       2.2400148 2.3040972 2.1456518 2.4398115
000070 35 ae 0a 40 37 7a 09 40 d9 ab cf 3e 82 39 16 40
       2.1668828 2.1480844 0.40560797 2.34726
000080 72 3a 22 40 1c 31 f6 3f 0b 5a ee 3f 46 69 21 40
       2.5348172 1.9233737 1.8621229 2.5220504
000090 ea 14 19 40 be 44 06 40 22 66 15 40 30 1a 07 40
       2.3919015 2.0979457 2.3343587 2.1109734
0000a0 c4 3e 01 40 3f b4 1e 40 3c 61 e1 3f 99 88 26 40
       2.019456 2.4797513 1.7607799 2.6020873
0000b0 fd ed 20 40 89 69 07 40 27 f4 26 40 4a b5 09 40
       2.5145257 2.1158164 2.6086519 2.15169
0000c0 f0 a1 0c 40 5d 65 e7 3f 15 d7 07 40 13 a7 10 40
       2.1973839 1.8077809 2.1225026 2.2601974
0000d0 cd 63 ee 3f 10 9e 07 40 c0 45 12 40 d9 81 1a 40
       1.8624207 2.1190224 2.2855072 2.4141753
0000e0 c6 cb 1f 40 ae bb 18 40 ce 09 f4 3f b6 c2 e5 3f
       2.4968123 2.386455 1.9065492 1.7950046
0000f0 6f 95 1f 40 28 79 f8 3f 81 75 09 40 c6 3c e3 3f
       2.4934957 1.9411974 2.1477969 1.7752922

weight f4 [32, 64]
000000 5e 0c e5 3f 85 56 dd 3f f1 b0 d8 3f 58 83 e5 3f
       1.7894399 1.7292029 1.6928998 1.7930708
000010 a0 59 b1 3d 59 82 c6 3f 67 f7 d8 3f f3 27 d2 3f
       0.08659673 1.5508529 1.6950501 1.6418442
000020 81 2e de 3f 94 24 c1 bc cd 13 c9 3f a8 bc 33 3d
       1.7357942 -0.023577012 1.5709168 0.04388109
000030 5d d5 e2 3f c1 35 dc 3f 03 b5 ec 3f 9b 30 de 3f
       1.7721363 1.7203904 1.849274 1.7358583
000040 93 d1 c8 3f 1d ca dd 3f fd 61 d7 3f b6 e4 db 3f
       1.5688957 1.7327305 1.6826779 1.7179172
000050 26 9e d6 3f b4 12 f0 3f 58 ae ff 3c 38 43 cf 3f
       1.6767013 1.8755708 0.031211063 1.6192389
000060 ea e3 ce 3f a6 a5 c9 3f d0 7c cd 3f 38 79 de 3f
       1.6163304 1.5753677 1.6053715 1.7380743
000070 12 8b e6 3f e0 4f bf 3f 92 af a4 bd cf 8b d6 3f
       1.8011191 1.4946251 -0.080413 1.6761416
000080 3f 0d dd 3f f6 f1 db 3f c2 fa f0 3f 8f 37 dc 3f
       1.7269667 1.7183216 1.8826525 1.7204455
000090 a9 ab d1 3f ba 16 dc 3f 38 67 d9 3f 03 44 bd 3f
       1.6380512 1.7194436 1.6984625 1.478638
0000a0 ff 61 bf 3f a1 20 d6 3f 59 92 e0 3f 7c ef ce 3f
       1.4951781 1.6728708 1.7544662 1.6166835
0000b0 bf 67 c9 3f 30 3a e5 3f 8c 81 db 3f 52 de d5 3f
       1.5734786 1.7908382 1.714891 1.6708472
0000c0 cd 7c da 3f 6f fd ea 3f 31 41 d0 3f 21 c1 d4 3f
       1.7069336 1.8358592 1.6269895 1.6621438
0000d0 b6 ae e1 3f ed 2d d1 3f 97 78 d7 3f 24 42 eb 3f
       1.7631443 1.634214 1.6833676 1.837956
0000e0 a8 28 c1 3f f1 78 f3 3f 4c 11 e4 3f 4b 5e d9 3f
       1.5090532 1.9021283 1.7817779 1.6981901
0000f0 f1 47 ef 3f 29 68 ea 3f 6b 71 e3 3f a4 43 b9 3f
       1.869383 1.8313037 1.7768987 1.4473767
000100 e8 25 8e bd e0 1e dc 3d e0 a1 16 3c 7e a4 e1 bd
       -0.06940824 0.107480764 0.009193867 -0.110177025
000110 70 db 4f bc da 86 d2 bd 68 60 39 bd c4 16 c0 bd
       -0.012686595 -0.10279627 -0.045257956 -0.09379342
000120 7c c5 21 bd 14 b9 5e 3d 00 ab 0c bb ec c1 4f 3d
       -0.039494976 0.054375723 -0.0021464229 0.050722048
000130 4c 3e 62 bd 74 90 46 3d 06 0a 8a bd 5a aa f9 bd
       -0.055235192 0.048477605 -0.06740193 -0.12190695
000140 b0 a4 e8 bc 94 de f0 bd 14 b2 9d bd a6 f8 b3 bd
       -0.028398842 -0.117612034 -0.07699981 -0.0878766
000150 f0 39 55 3c dc a7 62 3d e4 bd 6d 3d b8 f0 a0 3d
       0.013014302 0.055335864 0.058042422 0.078584135
000160 e8 45 53 bd 5e 46 b5 bd 30 e5 0f bd 68 83 ba 3d
       -0.05158034 -0.08851312 -0.03513068 0.09107095
000170 28 e9 b2 bd e8 61 05 3d 4a 51 9e bd 16 18 c6 3d
       -0.08735877 0.032564074 -0.077303484 0.09672563
000180 70 50 27 3d 68 fa c0 3c 28 b3 46 bd fc 0f 97 bd
       0.040848196 0.023556903 -0.0485107 -0.07376096
000190 7e 64 86 bd 50 1f 2d 3c a2 1b 94 bd 56 55 8d 3d
       -0.06562136 0.0105665475 -0.07231833 0.06901042
0001a0 98 1e d4 bd 80 a3 41 bb bc 12 aa bd e6 05 e0 bd
       -0.10357398 -0.0029546916 -0.083043545 -0.10938625
0001b0 f4 84 f1 3d 26 0d 90 3d 56 ca ea 3d 7a a9 c3 bd
       0.11792937 0.07033758 0.11464374 -0.095538095
0001c0 1c fe 3c 3d 74 49 1f bd a8 f3 9b 3d f8 02 ca 3c
       0.046140775 -0.03888841 0.07614833 0.024659619
0001d0 68 14 cc bc 68 1a f0 3c 48 2c 81 bc e0 bc 64 3d
       -0.024912074 0.029309466 -0.015768185 0.055844188
0001e0 bc 78 31 3d 7e fe ba bd 72 aa ef 3d 66 25 d2 bd
       0.043328032 -0.09130572 0.11702432 -0.102610394
0001f0 d6 0f ce bd f2 1c b4 bd 80 c1 6c 3d 58 89 ac 3d
       -0.10061614 -0.087945834 0.057801723 0.08424634
000200 ac 77 e5 3f f2 b2 ba 3f 6c 14 be 3f 6a 32 cb 3f
       1.7927146 1.458586 1.4849982 1.587476
000210 a0 03 05 bd 5b 5c c1 3f 6a fb d5 3f 1f bc ca 3f
       -0.03247416 1.510631 1.671735 1.583866
000220 cb 9c ee 3f 3a 61 d2 3d 3d 6f cb 3f 38 c3 9a 3d
       1.86416 0.10272451 1.5893322 0.07556766
000230 ef 4a d7 3f 41 38 c8 3f a7 7a dc 3f 4c 0c cd 3f
       1.6819743 1.5642167 1.722493 1.6019378
000240 de b9 c9 3f b8 15 de 3f d5 16 d0 3f fc 15 d6 3f
       1.5759847 1.7350378 1.6256968 1.6725459
000250 a9 7a d5 3f c8 93 da 3f b6 f2 da bd cd 49 d5 3f
       1.6678058 1.7076349 -0.10690825 1.6663147
000260 9b 72 d2 3f 8f ef d4 3f af 62 e1 3f 74 ec c5 3f
       1.6441225 1.6635607 1.7608241 1.5462785
000270 ca 98 c9 3f 66 8a cd 3f d2 7a f5 bd 97 f4 d1 3f
       1.5749753 1.6057861 -0.11986317 1.6402768
000280 7a a6 ec 3f fb 55 eb 3f 75 80 ed 3f da 76 e4 3f
       1.8488305 1.8385614 1.8554827 1.7848771
000290 c0 37 bf 3f 6c 67 c1 3f b6 c8 c6 3f cf 21 b9 3f
       1.4938889 1.5109687 1.5530002 1.4463443
0002a0 47 4e c3 3f 40 5d d3 3f f0 c2 d0 3f d2 80 ce 3f
       1.5258263 1.6512833 1.630949 1.6133063
0002b0 31 35 ce 3f 39 1d da 3f 65 bf ce 3f 7f 4f d2 3f
       1.6109983 1.7040168 1.6152159 1.643051
0002c0 a4 6d cf 3f cb 98 dd 3f 9f a5 d8 3f 35 28 e2 3f
       1.6205335 1.7312254 1.6925544 1.766852
0002d0 ea 4d e4 3f 83 a7 cb 3f 21 3c cf 3f 6d fd f4 3f
       1.7836277 1.5910496 1.6190225 1.913984
0002e0 8e 01 d7 3f 6f 69 e9 3f 37 40 e1 3f ed a8 cb 3f
       1.679735 1.8235301 1.7597722 1.5910927
0002f0 3e d5 eb 3f 8a 35 db 3f 95 1e e6 3f b4 8d c2 3f
       1.8424451 1.7125714 1.7978083 1.5199494
000300 50 fa 3a bd 15 e7 aa bd 6d d5 e4 3c 75 37 9c bd
       -0.045648873 -0.08344857 0.0279338 -0.07627765
000310 10 62 74 bd e9 f9 bd bd c0 cd bb bd ae 57 cf bd
       -0.059663832 -0.09276182 -0.09170103 -0.101241454
000320 fc 39 19 3d 04 6f d9 3d 17 5a e2 3d 24 79 d8 bd
       0.037408814 0.10616878 0.110523395 -0.10569981
000330 cd 17 8a 3b 70 54 73 3c 8d ec 97 3a 8d b4 b8 ba
       0.004214263 0.014851674 0.0011590883 -0.0014091894
000340 5e 75 9d 3d 80 e2 a6 3b e3 8d 80 3d 65 01 c7 bd
       0.07688402 0.005092919 0.06277063 -0.09717063
000350 e9 dd 9c 3d b7 4d 7b 3d e8 fc 07 3d e0 9c 21 3c
       0.076595135 0.06135341 0.033200175 0.009864062
000360 92 1e e9 3d 7d 26 01 bd 1a d3 a2 3d 62 5a 1b 3d
       0.11382784 -0.031530846 0.07950421 0.037927993
000370 f0 89 c3 bd c0 b0 61 bc 84 69 02 bd d3 dd c9 bc
       -0.09547794 -0.013775051 -0.03183891 -0.024641907
000380 84 f7 81 bd 01 e1 99 3d 2a a1 dc bd 83 e0 a8 bd
       -0.06346038 0.07513619 -0.10772927 -0.08245947
000390 4e 42 79 bd 1a 57 ad bd 7b dd f4 3d 0e 2c d9 3d
       -0.06085425 -0.08463879 0.119563065 0.10604106
0003a0 63 9f 60 3d 7e b3 59 bc ff f4 58 bd 90 9f f7 3c
       0.054839503 -0.013287423 -0.05296802 0.030227453
0003b0 0a 51 b4 bd 3f 85 1f 3d 37 28 b9 3d 74 10 11 bd
       -0.088045195 0.038945433 0.090408735 -0.03541608
0003c0 d6 aa 88 3d 40 52 8a 3d b4 5d f0 bd fa e6 62 bc
       0.06673209 0.06753969 -0.117366225 -0.013849014
0003d0 b0 8d c9 bd 33 3a fb 3c ff b8 fa bd 18 ad f1 bc
       -0.09841478 0.0306674 -0.122423165 -0.029501483
0003e0 dc 43 ad bd ea 11 ef 3d fe 3c ad 3c 26 2c 39 bd
       -0.08460209 0.11673339 0.021147247 -0.04520812
0003f0 d6 e7 cb bd 8c fe 46 bd 7c c7 78 3d 00 94 e0 39
       -0.099563286 -0.0485826 0.060737118 0.00042834878

bias f4 [32]
000000 f5 82 f5 3f f6 58 f8 3d 4e 4f f0 3f a6 ae f6 bd
       1.918059 0.12126343 1.8774202 -0.1204503
000010 ec ad 4b 3d e6 3a f8 3f 8c c7 9f bd 8b e4 f2 3f
       0.04972641 1.9392974 -0.078017324 1.8975996
000020 b8 5d d4 3d 3a 6f 00 40 94 48 0b be 73 a7 06 40
       0.10369438 2.0067887 -0.13601905 2.1039703
000030 07 a8 03 40 12 c4 03 40 bf c9 12 3b 40 d8 f2 3f
       2.0571306 2.0588422 0.0022398082 1.8972244
000040 e6 7e f0 3f 96 c9 f4 3f 0f d3 97 3d 7a f1 c5 3d
       1.8788726 1.9124019 0.07413303 0.096651986
000050 5f 3f ee bd 33 23 f9 3f 00 a8 bd 38 38 ba e5 3f
       -0.11633181 1.9463867 9.043515e-05 1.7947454
000060 9e e1 ec 3f cb 58 04 40 64 4a f6 3d 28 57 f3 3f
       1.8506353 2.0679195 0.12025908 1.9010973
000070 43 7f fb 3f 94 06 ed 3f dd d7 fc 3f b4 5d f2 3f
       1.9648212 1.8517632 1.9753376 1.8934846

weight f4 [12, 32]
000000 2b 93 b6 3f 61 c6 95 3c 21 5a ca 3f bf 72 e2 bd
       1.4263662 0.018283071 1.5808755 -0.11057042
000010 fb 3d 1c 3e a8 d4 bb 3f 05 90 2b be d3 ca d3 3f
       0.15258019 1.4674273 -0.16754158 1.6546272
000020 b3 a4 ac 3c 3b c0 ce 3f 4a 42 25 bd 29 10 c2 3f
       0.021074628 1.6152414 -0.04034642 1.5161182
000030 96 62 b6 3f f5 d1 b7 3f 59 73 2a 3e 93 87 ad 3f
       1.4248836 1.4360949 0.16645564 1.3556999
000040 a0 e3 b3 3f 95 66 c5 3f 51 73 a1 bd 7a 0a 2d 3e
       1.4053841 1.542193 -0.07883323 0.16898528
000050 d1 7f 0d be 0c 9b c6 3f 85 09 03 3e 3d 72 b0 3f
       -0.1381829 1.5516067 0.127966 1.3784863
000060 42 81 bc 3f eb f4 b7 3f 34 14 a3 3c a3 c9 b4 3f
       1.4726946 1.4371618 0.019907095 1.4124035
000070 67 72 ba 3f 0e c4 bc 3f 71 2f b3 3f 8c 25 d5 3f
       1.4566163 1.4747331 1.3998853 1.6652083
000080 17 02 d3 3f 22 aa d3 bd bb b8 a7 3f 35 1b 10 be
       1.6485013 -0.10335185 1.310325 -0.14072879
000090 5a 43 8b 3d 09 ef cd 3f b3 dd 2d bd e5 e1 c2 3f
       0.06799956 1.6088573 -0.042447757 1.5225188
0000a0 71 67 e5 bd 5f f4 ca 3f e2 89 33 3e 31 f8 d4 3f
       -0.112013705 1.5855826 0.17533067 1.6638242
0000b0 5e 43 bf 3f 5d bc cc 3f dd 0d ba 3d b2 a1 c9 3f
       1.4942434 1.5994984 0.090846755 1.575247
0000c0 06 3e c1 3f 4a 12 cb 3f 0a 21 a9 3a df ef 24 3e
       1.5097053 1.5864956 0.0012903523 0.16107129
0000d0 5e 53 a9 3d a0 d5 d2 3f db 46 bb bd ba ba a4 3f
       0.08267854 1.6471443 -0.09144374 1.2869484
0000e0 e4 91 ae 3f 89 f0 a7 3f d9 31 28 3e 07 d7 c5 3f
       1.3638272 1.312028 0.16425265 1.5456246
0000f0 17 9d a5 3f d6 ba ae 3f 20 ff b0 3f b6 b0 aa 3f
       1.2938565 1.3650768 1.3827858 1.3335178
000100 1d 4e b9 3f 97 4f 85 3d b5 d3 a5 3f 88 34 0c 3e
       1.4476963 0.06509321 1.2955233 0.13691914
000110 b8 eb 2d 3e 12 da cf 3f fc b6 0a 3e 2e 3e c8 3f
       0.16984451 1.6238425 0.13546365 1.5643976
000120 89 e8 1a be 60 38 ad 3f fc 38 87 bd 46 61 be 3f
       -0.15127768 1.3532829 -0.06602666 1.4873435
000130 1c 6c c5 3f ce a8 c2 3f 1f c0 81 3c 04 b9 c1 3f
       1.5423617 1.5207765 0.01583868 1.5134587
000140 20 9a ba 3f f9 92 c8 3f db 3f 08 be 39 e6 08 bd
       1.4578285 1.5669852 -0.13305609 -0.033422682
000150 46 a4 a9 3d 6a b5 be 3f 39 fe b6 bd a9 e1 9d 3f
       0.08283286 1.4899113 -0.08935208 1.2334491
000160 f6 29 ba 3f b8 96 b2 3f 39 4e 2e be 3a 75 c8 3f
       1.4544055 1.3952246 -0.17022027 1.5660775
000170 24 6d c6 3f 67 04 c7 3f 67 de be 3f 38 b5 c5 3f
       1.5502057 1.5548218 1.4911622 1.5445929
000180 77 f1 ba 3f ed 3f 4e bd 5b 25 cd 3f c7 80 ab 3d
       1.4604939 -0.050353933 1.6027025 0.08374172
000190 21 d6 15 be ee 26 bd 3f 3c c3 02 be 35 63 c9 3f
       -0.14632465 1.4777505 -0.12769789 1.57334
0001a0 2a f4 c0 3d 4b 86 cd 3f 6a a6 41 3e 42 e9 ba 3f
       0.094215706 1.6056608 0.18911138 1.4602435
0001b0 af 15 aa 3f 00 62 ca 3f dc 25 2a bd d5 93 ae 3f
       1.3287867 1.5811157 -0.04154001 1.3638865
0001c0 7c c3 b2 3f 5d e6 b4 3f 3f d8 d6 3d 9a e4 a9 3d
       1.3965907 1.4132801 0.104904644 0.082955554
0001d0 45 12 4f bd 5e ad ab 3f 23 ac 28 3e 6d 78 a1 3f
       -0.050554533 1.3412282 0.16471915 1.2614876
0001e0 83 c2 c9 3f 52 7d ce 3f 9a 26 85 3d bf 44 c7 3f
       1.5762485 1.6131995 0.06501503 1.5567855
0001f0 96 45 cd 3f ae 34 b6 3f 40 4b c4 3f 70 c9 bf 3f
       1.6036861 1.4234827 1.5335464 1.4983349
000200 f5 d9 d5 3f fb d2 e8 bd 66 34 c2 3f 2b cc f6 3b
       1.670714 -0.11368366 1.5172241 0.007531663
000210 db f4 03 3d 50 1a b2 3f 62 85 a3 3c 36 26 c3 3f
       0.032215934 1.391428 0.019961063 1.5246036
000220 56 15 81 3d b5 72 b1 3f 71 e4 b3 bd bd c4 ba 3f
       0.06302898 1.3863131 -0.08783806 1.459129
000230 04 61 b9 3f cd ec ba 3f 3a 31 21 3e 75 73 ba 3f
       1.4482732 1.4603516 0.15741435 1.4566485
000240 d2 71 ce 3f 69 2b b8 3f d0 fe 2c 3c cf 25 39 3c
       1.6128485 1.4388248 0.010558799 0.011300518
000250 ed 5c 09 3e bc 94 ae 3f 4c 3c a1 bc d0 43 ca 3f
       0.13414355 1.363914 -0.019682072 1.5801945
000260 66 49 ba 3f 2a 2c cb 3f 5d 96 d8 3c 01 f8 ad 3f
       1.455365 1.5872853 0.026438886 1.359131
000270 4d 8c ad 3f f3 c2 c9 3f ce d7 d0 3f a1 c5 b2 3f
       1.3558441 1.5762619 1.6315858 1.3966562
000280 5e 38 c9 3f e6 33 7e 3d 21 37 c1 3f e3 8d 8f 3d
       1.5720327 0.062061213 1.5094949 0.070094846
000290 0b df bc bd 7b 9f bd 3f bf 77 2c bd 02 ab b1 3f
       -0.092222296 1.4814295 -0.042106386 1.3880312
0002a0 c3 4a b6 bd 0c c7 ab 3f cd d0 7e bd 60 e1 c7 3f
       -0.089009784 1.3420119 -0.062210847 1.5615654
0002b0 6e 90 c4 3f ab 0c d1 3f bd ee b0 bd e6 71 af 3f
       1.5356576 1.6331991 -0.08639286 1.3706634
0002c0 0b 64 a8 3f 38 ff c7 3f c6 1e ea 3d 5a 98 0c 3e
       1.3155531 1.5624762 0.11431651 0.13729993
0002d0 8d 2e c1 bd 76 fb d1 3f f8 77 0a bb 82 66 a7 3f
       -0.09432707 1.6404865 -0.0021128636 1.3078158
0002e0 25 ff b1 3f bf 94 cb 3f e4 ba 32 be 7b 56 b6 3f
       1.3905989 1.5904769 -0.17454106 1.4245142
0002f0 63 f6 a6 3f bf a9 d1 3f 0d 18 b8 3f b9 3c d0 3f
       1.3043941 1.6379927 1.438234 1.6268531
000300 0d f1 b2 3f 47 2e fb bd 60 59 b1 3f 7f 7c a1 bd
       1.3979813 -0.12264686 1.38554 -0.07885074
000310 0d bf 10 3e 83 69 b9 3f 26 32 4c 3d d1 6c ad 3f
       0.1413538 1.4485325 0.049852513 1.3548833
000320 d6 6e af 3d 3e 79 c9 3f 92 90 a3 bd 92 71 d2 3f
       0.08566062 1.5740125 -0.07986559 1.6440909
000330 d4 58 cc 3f 50 a3 af 3f 2c dd 1b be 04 25 d5 3f
       1.5964608 1.3721714 -0.15221089 1.6651921
000340 72 bc a8 3f de 2e bd 3f 2b 6c 4b bc 10 9c 03 be
       1.3182509 1.4779928 -0.012415926 -0.12852502
000350 e4 90 24 be f5 a5 bf 3f e8 b1 78 3d 5e 89 aa 3f
       -0.16070896 1.4972521 0.06071654 1.3323171
000360 97 ab c4 3f e1 ef c1 3f 48 3a 33 3e bb 71 ad 3f
       1.5364865 1.515133 0.17502701 1.3550333
000370 69 eb b9 3f 80 d0 d5 3f 13 96 bc 3f 57 2f cb 3f
       1.4524966 1.6704254 1.4733299 1.5873822
000380 81 be bf 3f 97 55 14 3e ec 38 a8 3f a2 b5 0a be
       1.4980012 0.14485775 1.3142371 -0.1354585
000390 5a 0d 1a 3e e9 76 b0 3f 18 4f 92 bd 14 55 d0 3f
       0.15044156 1.3786288 -0.07143992 1.6275964
0003a0 fd f7 66 3d 00 ff ba 3f 93 73 dc 3d 95 06 ae 3f
       0.056388844 1.460907 0.107642315 1.3595759
0003b0 3e 98 c9 3f aa d0 c2 3f ee 58 87 bd 9e 00 c0 3f
       1.5749586 1.5219929 -0.06608759 1.5000188
0003c0 83 67 d3 3f ca b2 bb 3f ce 04 a4 bd 89 18 2c 3e
       1.6515964 1.4663937 -0.08008729 0.16806234
0003d0 4d 98 07 be bf 9c be 3f cf 3c 83 bd 62 96 a6 3f
       -0.13241692 1.4891585 -0.06408083 1.3014643
0003e0 35 05 d2 3f 0a 81 bd 3f fa a1 23 be 36 c9 cc 3f
       1.6407839 1.4805005 -0.15979758 1.5998905
0003f0 23 22 c2 3f 3f 14 ae 3f c7 95 ae 3f 70 44 c5 3f
       1.5166668 1.3599929 1.3639458 1.541151

bias f4 [12]
000000 c6 44 8d 3f 65 10 8c 3f ce a5 c6 3f 71 1b a4 3f
       1.1036613 1.0942503 1.551935 1.2820874
000010 54 cd b5 3f a6 bc 9f 3f fe 50 95 3f a2 aa b4 3f
       1.4203286 1.2479446 1.1665342 1.4114573
000020 63 e7 96 3f cf 17 c0 3f 6b c0 ac 3f 5d a6 92 3f
       1.1789364 1.5007266 1.3496221 1.145702
