src/rl/networks/most_recently_saved_network.pkl (torch, 9189 bytes, 6 tensors)

weight f4 [32, 6]
000000 72 28 3e 3d 1e c0 54 3f b1 20 ac 3e 49 d4 10 3e
       0.04642529 0.8310565 0.33618692 0.1414348
000010 d4 ba c7 3d 03 9f 9f 3e 37 4f a3 be 4a 6e af be
       0.097524315 0.31176004 -0.31896374 -0.3426383
000020 8d 14 f9 be dd 5e e0 3d f5 5b 24 3f fe db 8a 3e
       -0.48648492 0.10955594 0.64202815 0.27120966
000030 79 42 03 3f d6 93 b2 3e 05 70 c9 be 47 94 c3 be
       0.51273304 0.34878415 -0.39343277 -0.38199064
000040 a5 d5 b0 3e 15 b9 93 3d 3c 04 1e 3e 17 45 3c 3f
       0.34537998 0.07213036 0.15431303 0.7354292
000050 90 4c 24 bf 3a 15 0f bf 30 ac cf bd c6 46 4a 3e
       -0.64179325 -0.55891764 -0.10140264 0.1975356
000060 29 00 10 bf 10 9a 4d bf c2 1f 19 3e be 6c 43 3f
       -0.56250244 -0.80313206 0.14953521 0.763378
000070 d4 fc 07 bd 16 fa 33 be 16 79 3a 3e fe 8b 6b bf
       -0.0332001 -0.17575869 0.18210253 -0.92010486
000080 c2 c7 2e bf cb 76 77 be 69 9c 58 3d 26 e9 0a 3f
       -0.68273556 -0.2416641 0.05288354 0.54262006
000090 ec 67 97 3e 45 d4 9d 3e ce c8 ca 3e ab e9 ca be
       0.29571474 0.3082601 0.39606327 -0.396314
0000a0 84 34 98 3e 3f 3d 83 bc 4c 07 5b bf b6 41 a0 3e
       0.29727566 -0.016020415 -0.8555801 0.31300133
0000b0 32 83 ed bb 73 6b 7d 3f a5 3c 12 3e f2 63 21 bd
       -0.0072483057 0.9899208 0.14280947 -0.039401956
0000c0 f7 31 99 3d 2e 39 6d be 5d 54 21 3e 96 96 6b be
       0.07480233 -0.23166344 0.15754838 -0.23006663
0000d0 85 1b b6 be 51 23 3a be 16 3d b6 bb 93 85 b5 3e
       -0.3556787 -0.18177535 -0.005561481 0.35453472
0000e0 52 c6 45 be 73 d0 0d 3e 4f ad c4 3e ad ae 23 3f
       -0.19313934 0.13849048 0.38413474 0.6393841
0000f0 55 ed 0a bf 79 33 01 3e 24 ad a7 be c7 97 f1 be
       -0.5426839 0.12617292 -0.32749283 -0.4718611
000100 f2 e0 5e 3e 64 55 a3 3e b7 46 8e 3d cb 64 12 be
       0.21765497 0.31901085 0.069470815 -0.14296262
000110 3a 53 2b bf 23 59 e1 bd 04 ba 09 3f 77 5d c0 3e
       -0.6692387 -0.110033296 0.5379946 0.37571308
000120 3c a0 f4 3e 37 c9 bf be 13 24 ba 3d af 5c a0 bd
       0.477785 -0.37458202 0.09088912 -0.07830178
000130 90 a6 d0 3e 5c 4b 33 3f 25 a3 ea be 8b 94 e1 be
       0.40752077 0.70036864 -0.45827594 -0.44058642
000140 a0 5d 6b 3e 6e 2c 36 3e 66 9b 17 3f 4c 93 05 3f
       0.22984934 0.17790386 0.59221494 0.5217788
000150 c1 55 e3 3d b0 bd cf 3e c0 07 ba be 24 32 af bd
       0.11100341 0.40574408 -0.36334038 -0.085544854
000160 74 ea 81 3e 43 17 a2 be fb 60 2b bf 52 6b b4 be
       0.25374186 -0.31658372 -0.66944855 -0.3523813
000170 72 57 20 bd be f6 1d bd 1b 9f 39 3f 98 30 2a 3f
       -0.039145894 -0.03856539 0.725084 0.664804
000180 61 b6 22 3e 90 d9 07 be 91 3c 6b 3e 74 b6 1e bd
       0.15889885 -0.13266587 0.22972323 -0.03874822
000190 a5 e0 80 be ec b1 b6 be 18 2d f8 be 6d de 67 3f
       -0.2517139 -0.3568262 -0.48471904 0.9057377
0001a0 25 cb 9e be f4 c7 09 3e 10 a1 b5 bd 99 a7 03 3c
       -0.31014362 0.13455182 -0.08868611 0.008035564
0001b0 68 76 dc be 18 ab 45 3e 48 70 17 bf 31 a2 90 3d
       -0.43059087 0.19303548 -0.591557 0.070621856
0001c0 ea 61 25 3e 00 c4 a8 3e 24 e5 d4 3e 53 98 45 3d
       0.16150633 0.32962036 0.4158107 0.04824097
0001d0 98 38 2a bf a9 a3 10 bd 08 b0 04 3f 0c 24 05 3f
       -0.66492605 -0.03531233 0.518311 0.5200813
0001e0 ef c3 88 3f 9a 32 65 be 45 68 54 be b9 fc f4 be
       1.0684794 -0.22382584 -0.207429 -0.47849062
0001f0 9f 74 bb 3e ad 14 c0 bc 62 60 c3 be 18 bf 3d be
       0.36612412 -0.023447359 -0.38159472 -0.18529928
000200 82 45 b9 3e 21 49 34 be 41 72 1a 3e 3f 01 d1 3e
       0.36185843 -0.17606021 0.15082647 0.40821263
000210 a6 8a 39 bf 49 26 75 3e d9 10 76 be e7 07 f7 3e
       -0.72477186 0.23940386 -0.24029864 0.48248217
000220 a2 93 28 3f aa 0d e2 bb 36 39 98 be f8 17 d0 be
       0.6585027 -0.0068986015 -0.29731148 -0.40643287
000230 fd b9 34 3e 3c d7 e1 3d b0 d7 3d 3f 93 fa 0a 3f
       0.17649074 0.11027381 0.7415724 0.54288596
000240 35 cf ac 3c 72 a3 0a 3f 69 bd 1b bf e5 3b 3c bf
       0.021094898 0.5415565 -0.6083589 -0.7352889
000250 09 f4 e6 3c f1 15 91 3e c5 ae 2a 3f bd 01 16 bf
       0.028192537 0.28337052 0.6667293 -0.585964
000260 8c ae 51 3d 21 42 fa be ae 07 de bd 73 97 49 3e
       0.05119185 -0.48878577 -0.108413085 0.1968668
000270 22 76 6e bd 3d e4 bc be e4 72 84 be da 9f b3 be
       -0.05821813 -0.36892882 -0.25868905 -0.35082895
000280 6a f9 e4 3e 4a c8 15 3f 9c 13 c0 be c9 d8 93 3d
       0.44721538 0.5850874 -0.3751496 0.07219083
000290 b1 0d fd be ca ab 08 bb d0 53 77 3e 17 b8 d2 3e
       -0.49424508 -0.0020854347 0.24153066 0.41156074
0002a0 6b a4 3b 3f f6 e3 51 3e 5c 49 bf 3e e5 a8 34 bf
       0.73297757 0.20497116 0.37360656 -0.7057021
0002b0 0e 95 d5 be cb c6 ed be ee 50 01 3f cc b1 72 3b
       -0.41715282 -0.4644073 0.50514114 0.0037032245
0002c0 81 20 4b bf d8 a3 8d bf 22 79 99 3c 70 e3 20 3e
       -0.7934647 -1.1065626 0.018734518 0.1571176
0002d0 11 5b 2b bf af d5 13 bf 54 44 23 bf bf 31 f0 3e
       -0.6693583 -0.5774793 -0.63776135 0.46912953
0002e0 e9 a2 0c bb 74 37 bd bd a7 a8 7f bd 19 ab 7d bf
       -0.0021459407 -0.092390925 -0.0624167 -0.990892
0002f0 35 d2 1d 3e 35 da 99 bc c3 4e e6 3e f0 4c 98 3e
       0.15412219 -0.018780807 0.44981965 0.297462

bias f4 [32]
000000 5d be 77 3d 26 87 e1 3e 22 2b b9 3d 0b 11 ab 3e
       0.06048428 0.44048423 0.0904143 0.3341144
000010 b0 a5 23 3e 69 8d 0a 3f 1b 45 29 3f fb fe bf 3c
       0.15981174 0.54122025 0.6612107 0.023437014
000020 cf 85 14 be 4c 01 44 3f 0f 64 55 3f b8 5f 01 3f
       -0.14504169 0.7656448 0.833558 0.5053668
000030 06 7a 57 3f f1 bd 1f 3f 54 ca d7 3e 74 22 47 3f
       0.8417057 0.623992 0.42146552 0.77786946
000040 50 f4 ad be 88 b4 e4 3c ad 12 3f 3f 45 59 ea 3c
       -0.33975458 0.027918115 0.7463787 0.02860702
000050 08 42 0e 3f 62 4e de 3e 07 6c 3f 3f 37 f5 29 3f
       0.55569506 0.43419176 0.7477421 0.66389793
000060 7b 18 03 3f 55 62 62 bd 11 9b 47 3f 8d bb 6c bc
       0.5120923 -0.055269558 0.7797099 -0.0144490125
000070 9b 27 8a 3e 30 fb 71 3e 30 cf c8 be 40 3a ce 3e
       0.26983342 0.23630977 -0.39220572 0.40278816

weight f4 [32, 32]
000000 3c 61 cc be f9 ba 54 3e 49 af 14 3e db 0a e2 3e
       -0.39917934 0.2077445 0.14519991 0.44148907
000010 08 0c 4f 3f 42 8a d5 3e 67 c3 13 be 14 4d e7 3e
       0.80877733 0.41707045 -0.14430009 0.45175993
000020 45 a6 80 bd 0b 0e 29 3e d3 31 9c 3e f3 f1 a3 3e
       -0.062817134 0.16509263 0.30506763 0.3202053
000030 42 97 24 bd 36 15 81 3e e3 05 1b bf e8 d6 7e 3e
       -0.040183313 0.25211495 -0.6055586 0.24886668
000040 60 7f ff 3c c2 62 15 3f b1 db 28 3e c0 89 5a 3e
       0.031188667 0.5835382 0.16490056 0.2134161
000050 13 31 9e 3e 27 2a ab be cc b5 9c 3d 62 c5 28 bc
       0.30896816 -0.33430597 0.076518625 -0.010300966
000060 e5 58 98 bd 22 38 ff 3d 8f 2f 25 3e 10 ad 41 3d
       -0.0743883 0.12461878 0.16131423 0.047284186
000070 82 cc 20 3e 25 2b d1 3e 90 88 e6 3e f1 91 82 3f
       0.15703014 0.4085323 0.45026064 1.0200788
000080 a3 6a 4c be 29 2d 02 3e 11 d4 83 3d 66 e1 b4 3e
       -0.19962554 0.1271254 0.06436933 0.35328215
000090 f4 05 0d 3f 62 d7 c6 3e 83 24 0f be 8b 73 10 3f
       0.5508721 0.388362 -0.13978772 0.56426305
0000a0 28 cf bc bd 47 25 e8 3d 6f f3 1d 3e 6f f1 7a 3d
       -0.092191994 0.11335235 0.15424894 0.061265405
0000b0 8b eb 4f 3d 5a 55 e2 3d 21 0b 0e bf 94 c5 2f 3e
       0.05076174 0.11051436 -0.5548573 0.17165214
0000c0 34 cf 07 3c 4a 1b 18 3f e5 d3 7f 3e 50 c2 af 3b
       0.008289147 0.5941664 0.24983175 0.00536374
0000d0 44 8e 66 3e 9e ed 73 be b9 6c 0c 3d 07 8d da 3b
       0.22515208 -0.23821113 0.034283374 0.006669644
0000e0 f6 01 d4 bd 59 c8 85 3e b8 49 36 3e 24 da a2 3e
       -0.103519365 0.26129416 0.17801559 0.31807053
0000f0 c7 c3 6d bd af fb 2a 3f ba c1 5e 3e 0d a3 7f 3f
       -0.058048036 0.6679029 0.21753588 0.9985817
000100 2a 76 e4 be 28 9b bb 3e df d1 31 bd 8d c0 06 3f
       -0.44621402 0.36641812 -0.04341304 0.5263756
000110 9f d8 85 3f 15 49 33 3f b4 96 85 3c 5e cb 3c 3f
       1.0456733 0.7003339 0.016307212 0.73747814
000120 00 4d 31 3e 3c 56 ca 3d e0 ef d4 3d e6 84 c5 3e
       0.1731453 0.09879729 0.10397315 0.38577956
000130 bd f8 85 3e ce be 78 3e e0 ee 28 bf 61 28 34 3e
       0.26166335 0.24291536 -0.65989494 0.17593528
000140 4c 60 14 bd 49 83 31 3f 88 26 da 3e 59 4e 57 3d
       -0.03622465 0.6934095 0.42607522 0.052564953
000150 12 46 36 3f 2f 39 56 be 0d 1a 82 3e 36 f6 83 3e
       0.7120067 -0.20920251 0.254105 0.25773782
000160 5a f3 53 3e 97 89 72 3e 45 57 c2 3e a9 00 2e 3e
       0.206983 0.23685299 0.37957206 0.1699244
000170 f5 96 23 3e 9a 03 61 3f 2a ce cc 3e bf df a9 3f
       0.15975554 0.8789612 0.4000104 1.3271407
000180 5e 9c d8 be 72 74 ae 3e c0 bf fc 3c 7e 9e 1b 3f
       -0.423068 0.34073216 0.030853152 0.60788715
000190 ce 2f 45 3f 60 8f 3d 3f f1 33 4f be d3 69 48 3f
       0.7702607 0.740469 -0.20234658 0.78286475
0001a0 5a 01 1c be 8c 08 5c 3e ee 08 d6 3d cb 37 84 3e
       -0.1523489 0.21487635 0.10450922 0.25823817
0001b0 d5 c8 75 3d ee e7 57 3e 69 61 01 bf d7 a4 d1 3e
       0.06000598 0.21084568 -0.5053926 0.40946075
0001c0 34 18 12 bd 85 82 53 3f 08 8d 2e 3e d6 07 b7 3e
       -0.035667613 0.8262103 0.17045987 0.35748166
0001d0 8f 1a 38 3f 2a 06 d5 bd 9e 4e 5d 3e 64 3f b8 3e
       0.71915525 -0.10401566 0.21612021 0.35985863
0001e0 d1 8a a7 bd a6 24 85 3e e6 9d e0 3e 44 12 3d 3e
       -0.08180774 0.26004523 0.43870467 0.18463999
0001f0 0d 60 95 3e 4b 1f 41 3f c7 01 23 3f 8a ec 9c 3f
       0.29174843 0.75438374 0.63674587 1.2259686
000200 34 23 b4 be 58 59 8a 3e 63 20 27 bd c0 cd 1b 3f
       -0.35183108 0.2702129 -0.04080237 0.60860825
000210 f3 62 4b 3f c1 ba 2b 3f 4a 3a 5a be 22 d3 4f 3f
       0.7944786 0.6708184 -0.21311298 0.8118154
000220 e7 45 85 bb 48 f7 3a 3e 22 3b 70 3e f5 75 04 3e
       -0.004067171 0.18258393 0.23460057 0.12935622
000230 f0 ae 97 3d 7c 94 bc bc 9e ee 08 bf cc ec 65 3e
       0.074064136 -0.023020022 -0.534891 0.22453612
000240 c3 a9 7e 3d 18 fa 0e 3f d1 77 4f 3d 82 98 7e 3e
       0.062173616 0.5585036 0.050651375 0.24862865
000250 10 f0 ab 3e 7e 85 94 be 58 8e 6a 3d cb 97 d5 3d
       0.3358159 -0.29008096 0.057264656 0.10429343
000260 20 ae 6b bd 60 88 b5 3d 53 c0 17 3c a9 7b c0 3d
       -0.057539105 0.08863902 0.009262162 0.09398586
000270 c1 4f 64 3e 96 fa 1c 3f 28 cc a6 3e 7b 91 a8 3f
       0.22296049 0.61319864 0.32577634 1.3169397
000280 35 9e 03 bf 5b 2b b6 3e 45 a1 ff 3d 57 40 26 3f
       -0.5141328 0.35579953 0.124819316 0.64941925
000290 76 ff 4f 3f 22 f4 e9 3e cc 5c 1f be 85 e9 20 3f
       0.8124918 0.4569407 -0.15562743 0.6285632
0002a0 ea 79 34 3c 46 1f 79 3c 79 20 20 3e 44 48 50 3e
       0.011015395 0.01520521 0.15637387 0.20340067
0002b0 1f 55 1d bc 37 b5 6d 3c fa 16 29 bf bc 25 9e 3e
       -0.009602814 0.014508537 -0.66050684 0.30888164
0002c0 2b a6 09 be 69 00 08 3f 13 03 85 3e 4f b3 9d 3e
       -0.13442294 0.53125626 0.25978908 0.30800864
0002d0 ab 21 05 3f fc ec 52 be 76 63 31 3e ee 63 6f 3d
       0.520045 -0.20598215 0.17323098 0.05844491
0002e0 ed 07 87 bd 58 36 86 3d 59 91 1b 3e 77 f9 9b 3e
       -0.065933086 0.06553334 0.15192164 0.30463764
0002f0 9d d1 72 3e 96 26 15 3f 9e e1 22 3e cf f8 9c 3f
       0.23712774 0.58262 0.15906379 1.226343
000300 11 a2 8d bd 3a e8 35 be 69 e7 85 3e 0d 9f be bd
       -0.06915677 -0.17764369 0.26153114 -0.0930768
000310 5c 7e 07 3f e0 c7 90 bd 00 94 e4 3d f2 ae eb be
       0.52927184 -0.07069373 0.11161041 -0.4603191
000320 c2 4c 04 bd ae 41 4c 3e 78 82 d7 3d 01 81 0a 3e
       -0.032299764 0.1994693 0.10522932 0.13525774
000330 7b a8 2d 3d 29 9a 3b 3e 23 f2 c4 be 30 0d 8a bd
       0.042397004 0.18320526 -0.38465986 -0.067407966
000340 fa ed 99 3d e1 9a 62 be 66 e4 4e be 1d 4c 50 3e
       0.075160936 -0.22129394 -0.20204315 0.20341535
000350 6b 84 78 3c 67 41 0e 3e 27 0b 80 be 38 98 be bd
       0.01516829 0.13892137 -0.2500851 -0.09306377
000360 2f 70 53 3e 5c 45 9a bd aa b2 bb bc 51 72 b9 bc
       0.20648263 -0.075327605 -0.022912342 -0.022637518
000370 30 22 ca 3d 9b 46 29 bd 1e a6 13 3d 76 48 a9 3d
       0.09869802 -0.0413271 0.036047094 0.08265774
000380 1d 86 ca be ec cc db 3e de 4a 4a 3e 96 1e e3 3e
       -0.39555445 0.4292978 0.19755122 0.44359273
000390 cb a5 19 3f 17 fa 28 3f 10 3f 77 3d cf be 14 3f
       0.60018605 0.66006607 0.060362875 0.5810365
0003a0 bb 33 d0 3d 58 38 a3 3c 92 a5 87 3e 3d 76 a0 3e
       0.10166117 0.019924328 0.26493508 0.3134021
0003b0 e5 23 02 3e 19 99 f0 3d d6 20 f5 be 98 8a 5c 3e
       0.12709005 0.11747951 -0.47876614 0.21537244
0003c0 52 9a 21 be d5 12 28 3f 08 30 bc 3e b2 d6 7c 3e
       -0.15781525 0.65653735 0.36755395 0.24691275
0003d0 9d 7a 10 3f fa d8 1f be 34 79 39 3e f1 47 fb 3d
       0.56437093 -0.15610114 0.18112642 0.12269581
0003e0 ef e1 a1 3d 6f 50 15 3e 24 d3 a4 3e 75 47 4f 3e
       0.079044215 0.14581464 0.32192338 0.20242102
0003f0 19 42 1a 3e a8 28 0e 3f 04 e0 c0 3e 1b 7a 92 3f
       0.15064277 0.55530787 0.3767091 1.1443514

bias f4 [32]
000000 36 e1 b8 3e 53 69 94 3e 50 c3 32 3e 99 c9 3f 3e
       0.36109322 0.28986606 0.17457318 0.18729247
000010 40 77 8c 3c 34 dd 9e 3e 3a 68 1b 3e ad fe 9b 3e
       0.017146707 0.3102814 0.15176478 0.3046774
000020 95 5a 73 3e b6 f3 90 3e 7c 74 67 3e 57 71 05 3e
       0.23765023 0.28310937 0.22603029 0.13031517
000030 13 b0 a0 3e 2a 9a b3 3c d4 7a bc 3e 22 28 97 3d
       0.31384334 0.021924097 0.3681246 0.073807016
000040 b7 ae 91 3e e3 4d 99 bc c6 c3 01 3e 15 0d dc 3e
       0.2845361 -0.018713897 0.12672338 0.4297873
000050 49 45 b8 3e 37 75 d6 3d 61 a4 84 3e d1 61 fd 3e
       0.3599036 0.10471576 0.2590666 0.4948869
000060 70 e2 cd bd 56 99 af bb 20 1a c4 3b 3b 0b 07 be
       -0.10052955 -0.0053588552 0.0059845597 -0.13187878
000070 01 cf 19 3e 02 b2 ec bd 25 d8 54 bb fb 3c 89 3d
       0.15020372 -0.1155739 -0.0032477465 0.06701084

weight f4 [8, 32]
000000 1a 81 59 3d 56 a5 2f 3e 58 7f 6e 3e 49 03 8e 3e
       0.053101636 0.17152914 0.23290765 0.2773688
000010 65 ef a1 3e 64 2f 16 3e fe b7 d7 be 15 d8 ad 3d
       0.31627956 0.14666516 -0.42132562 0.0848848
000020 c4 43 89 3e b8 18 a2 3e 34 78 1a 3e 9f 0b 00 3e
       0.26809514 0.31659484 0.15084916 0.12504433
000030 cc de 1d bd 47 05 79 3e 3f 69 4b 3e 3f a3 96 bc
       -0.038542554 0.2431842 0.19864367 -0.018388389
000040 9b 9b 95 3e 24 59 a7 be 63 39 31 bd f8 f7 13 3e
       0.2922028 -0.32685196 -0.04326762 0.14450061
000050 d0 63 5a 3e 9f e1 34 be 2b 50 3a 3e e9 72 8f 3e
       0.21327138 -0.17664193 0.18194644 0.28017357
000060 07 f5 ef bd 19 3c b0 bd f9 d5 03 3f 04 90 51 3d
       -0.11716657 -0.08605213 0.5149837 0.051162735
000070 8b c7 39 3e a8 3d 10 3e 51 48 13 3f 1a d4 a1 3c
       0.18142526 0.1408602 0.5753222 0.019754458
000080 8e 7d 9a 3e d8 f7 95 3e f7 fd 6d 3e bd b2 8e 3e
       0.30173916 0.29290652 0.23241411 0.2787074
000090 ca a4 9e 3e d1 c4 96 3c 1e b7 47 3c ae 4f 18 3d
       0.309851 0.018404396 0.012189655 0.037185363
0000a0 d1 dc b5 3e ec 4a 15 3e 9f 20 3a 3d f2 62 c9 bc
       0.35520032 0.14579362 0.045441266 -0.024583314
0000b0 64 8d 90 3d 8d 11 5d 3e 08 90 79 3e e2 e0 08 3d
       0.07058218 0.21588726 0.2437135 0.03341759
0000c0 79 d0 59 3e 36 a8 38 be a3 4c 91 3e 83 73 82 3e
       0.21270932 -0.18032917 0.28378782 0.25478753
0000d0 8b bb 2d 3e 90 6c 83 be c2 d4 41 3e fe 94 25 bd
       0.16966073 -0.25668764 0.18928817 -0.040425293
0000e0 93 8c 46 be 1e 09 05 3e 31 11 14 3f 76 32 ed bd
       -0.19389562 0.12991759 0.5783873 -0.1158189
0000f0 44 37 33 3e 99 6c 18 3d 27 61 f5 3e 25 75 f3 3d
       0.17501551 0.03721294 0.47925684 0.11887578
000100 31 f4 1b 3e 08 61 0b 3e 3a d8 7c 3e 79 47 2d 3e
       0.1522987 0.13611233 0.24691859 0.16921796
000110 9d 6a 95 3e 96 12 95 3c 30 01 b0 bd c9 73 07 3e
       0.29182902 0.018197339 -0.085939765 0.13227762
000120 52 0d 37 3e 64 b9 a9 3d a9 b1 9e 3e 43 b0 a5 bd
       0.17876175 0.082873136 0.3099492 -0.0809026
000130 4b ee 84 3d bd a4 15 bc d5 49 9a 3e ec ad 88 3e
       0.06490763 -0.009133515 0.30134454 0.26695192
000140 b9 27 e7 3c 7e 23 42 be 86 63 90 3e b7 e7 8b 3e
       0.028217183 -0.18958852 0.2820093 0.27325222
000150 80 a8 74 3e f6 24 bf bd 45 2e 8c 3e aa 73 b2 3d
       0.23892403 -0.093332216 0.2737905 0.087134674
000160 63 8b 1d be ab bf 90 bd b5 26 20 3f 61 59 a3 3d
       -0.15385203 -0.07067808 0.6255906 0.07976032
000170 a0 69 af 3e ec 27 f3 bd a1 59 d0 3e e2 38 27 3e
       0.34260273 -0.11872849 0.4069338 0.16330293
000180 37 cb 32 3d f9 29 e7 3c 4c 8a c3 3d 5d 74 1e 3e
       0.043650832 0.028218256 0.095478624 0.15474077
000190 a2 58 78 3d bc ff 7a 3e 29 5a 4c be 9d 4b 4b 3e
       0.0606314 0.24511617 -0.19956268 0.19853063
0001a0 17 22 63 3e a1 a0 89 3e b1 7b 54 3e 58 c9 36 be
       0.22180973 0.26880363 0.2075031 -0.17850244
0001b0 17 c2 90 3e 3f 48 a1 3d 0a c8 9f 3e e3 cf e1 3d
       0.2827308 0.07875108 0.31207305 0.11025979
0001c0 68 d6 46 3e 0e 4d 47 be 81 2c 7f 3d e9 14 aa 3e
       0.19417727 -0.19462988 0.0622983 0.33219078
0001d0 24 d8 0e 3e d9 55 9c bd 2f a3 1c 3d 13 0d 6c 3e
       0.13949639 -0.07633562 0.03824156 0.23051862
0001e0 c2 53 5e be 9e 6f b2 3d d8 f3 04 3f eb 80 8a bd
       -0.21711639 0.087126955 0.51934576 -0.067628704
0001f0 a7 7b 31 3e a6 1c 33 bd 38 0a 00 3f 86 cf 67 3e
       0.17332326 -0.043728493 0.5001559 0.22637758
000200 e2 57 f0 3d 8c 54 d3 3d 2b 29 2f 3e 64 b6 e8 3d
       0.11735512 0.103188604 0.17105548 0.11362913
000210 b3 37 06 3e a3 53 15 3e 14 74 26 3e 78 30 a9 3d
       0.13107185 0.14582686 0.16255218 0.08261198
000220 d8 bb 91 3e 2e 15 85 3e a8 cb a7 3e 7e 36 df ba
       0.28463626 0.2599272 0.32772565 -0.001702979
000230 51 59 3f 3e 25 5b 6c 3e 0f 6e e6 3d b1 45 fb 3d
       0.18686415 0.23081644 0.11251461 0.12269152
000240 9e 7e 9e 3d b5 91 13 bf 49 f9 09 3e c6 c4 68 3e
       0.07738994 -0.57644206 0.13474001 0.22731313
000250 44 dc 5c 3e ad 76 2e 3e b7 a8 25 3e 26 95 94 3e
       0.215684 0.17037459 0.16177641 0.2902004
000260 85 58 a1 be 6a 27 b7 bd bc ab 24 3f d0 89 da 3d
       -0.31512848 -0.089430645 0.64324546 0.10670817
000270 55 df 41 3e 84 26 f9 bd a8 46 96 3e a8 a6 99 3e
       0.1893285 -0.121655494 0.2935078 0.3000996
000280 5c 2f 89 3e cc 9b 47 3e e6 c9 92 3e 72 a7 98 3e
       0.26793945 0.19493026 0.2866966 0.2981525
000290 49 1a 83 3d cb c4 35 3e 32 37 47 be de 50 84 3e
       0.06401498 0.17750852 -0.19454649 0.25842947
0002a0 54 fb 7d 3e 56 c6 ee 3d 01 b7 b1 3e 2b de 99 be
       0.24802905 0.11658923 0.34709933 -0.30052313
0002b0 a5 25 33 3d 47 f1 a1 bd b1 e0 a9 3e a0 ef 4c 3d
       0.043737072 -0.07907348 0.33179238 0.05003321
0002c0 d8 09 2f 3d 5f e7 82 be cb 89 8c 3e 90 bf 69 3e
       0.042733997 -0.25567147 0.27448878 0.22826982
0002d0 90 a5 a9 3d 69 f6 8d bd 1f ec 8e 3e 9f e8 26 3e
       0.08283532 -0.06931765 0.2791452 0.16299675
0002e0 28 ed 53 be db f3 e6 bd 6e ef 12 3f e4 cc f7 3c
       -0.20695937 -0.112769805 0.5739659 0.030249067
0002f0 48 8c ff 3c fa 55 29 be 84 fa 00 3f 56 e1 84 bd
       0.031194821 -0.16536704 0.50382257 -0.06488292
000300 a7 92 4c 3e 6d cb e5 3d 3d bf 63 3e 6d ef ca 3d
       0.19977818 0.11220441 0.2224092 0.09908948
000310 10 2d bc 3e e7 ac 8c 3e 38 20 ba bd 03 57 93 3e
       0.3675313 0.27475664 -0.090881765 0.28777322
000320 16 9b a8 3e 7b be c2 bc 10 b4 df 3d aa 0c c2 bd
       0.3293082 -0.023772469 0.10923016 -0.09475072
000330 0e 6d 07 3e b1 0f 4a 3e af c2 f9 3d b6 ae 83 3e
       0.13225195 0.19732548 0.12195336 0.2571923
000340 0a e3 89 3e 5b 92 a8 be cf 77 9d 3d 6a 20 8b 3d
       0.2693103 -0.3292416 0.07688867 0.06793292
000350 72 b3 9c 3e e4 39 cc bd 51 c6 3b 3e 59 47 0b 3e
       0.30605656 -0.09971979 0.1833737 0.13601436
000360 22 b4 d8 bd 46 52 24 be c3 ac 14 3f f6 88 18 be
       -0.105812326 -0.1604701 0.58076113 -0.14895996
000370 8a b0 ee bd f9 1b 5a 3d 4a 4d 10 3f b8 56 aa 3d
       -0.11654766 0.053249333 0.56367934 0.083173215
000380 20 a9 95 3e e5 b8 a3 3e e1 a4 b5 3d 2c 4e 28 3e
       0.29230595 0.31977 0.08869339 0.1643607
000390 7a 7e 70 3d 5c 9d 94 3e 30 1c 65 bb f8 21 e0 3d
       0.058714367 0.29026306 -0.0034959428 0.10943979
0003a0 b5 4e 9b 3e 3d da 36 bc c0 12 49 3e b4 48 d8 bd
       0.30333486 -0.0111604305 0.19636059 -0.10560742
0003b0 f9 1a 84 3e 7c e4 22 3e e1 f9 a1 3e 9d c1 8f 3e
       0.25801829 0.15907472 0.31635955 0.28077403
0003c0 47 ae 8f 3e 09 15 80 be e5 df a4 3e 44 08 06 3e
       0.2806265 -0.2501605 0.32202068 0.1308909
0003d0 54 9a 6d 3e e9 d2 2a bd 18 2b 17 3e 2c d5 04 3d
       0.23203403 -0.041705046 0.14762533 0.03242986
0003e0 8d b3 df bd c5 b6 fb bd 31 29 04 3f 6b 6d 6d bd
       -0.109229185 -0.1229072 0.51625353 -0.057965677
0003f0 92 29 94 3d 9b 0b 91 bc e9 c4 eb 3e ac 81 bd 3c
       0.072344914 -0.01770573 0.46048668 0.023133121

bias f4 [8]
000000 00 90 ef bd b4 81 d3 bc 0b 49 ff 3d da 72 70 3d
       -0.11697388 -0.025818683 0.12465104 0.05870328
000010 ef ba ee 3d d8 3a 3c 3e ca 7f ac bd 6b 35 86 3d
       0.116567485 0.18381822 -0.08422811 0.065531574
