src/rl/networks/most_recently_saved_network.pkl (torch, 14693 bytes, 6 tensors)

weight f4 [64, 6]
0	0x3c158677	0.009126297
1	0x3f344d1a	0.7043015
2	0xbeb8ad8d	-0.3606991
3	0xbd97dec8	-0.07415539
4	0x3e110706	0.14162835
5	0x3e3b89a6	0.18314227
6	0xbe8ef8ec	-0.27924287
7	0x3e825406	0.2545473
8	0x3e919006	0.28430194
9	0x3ea1add4	0.31577933
10	0x3f085b81	0.53264624
11	0x3f1aaaf7	0.6041712
12	0xbd8c72c6	-0.06857829
13	0xbe8d843b	-0.27639946
14	0x3ef1f245	0.4725515
15	0xbe5e0e36	-0.21685109
16	0x3eecf858	0.4628322
17	0xbd63e781	-0.0556407
18	0xbecc07d1	-0.39849713
19	0x3f0be8e3	0.5465223
20	0xbe957dd9	-0.29197577
21	0x3e70a09d	0.23498769
22	0x3e1a7b84	0.1508618
23	0x3e9a697c	0.30158603
24	0x3ec9f391	0.3944364
25	0xbe9fd516	-0.3121726
26	0xbf06c5d1	-0.52645594
27	0xbcc4af23	-0.024009293
28	0xbd37df01	-0.044890407
29	0x3f148b50	0.58025074
30	0xbe04682e	-0.12930366
31	0xbe11f4cc	-0.14253539
32	0x3e81060e	0.25199932
33	0xbe839af4	-0.25704157
34	0xbdf30fdb	-0.118682586
35	0xbe9a902c	-0.3018812
36	0x3d19354c	0.037404343
37	0x3e5531bf	0.20819758
38	0x3f17f4a1	0.5935765
39	0x3d1f4c93	0.038891386
40	0x3e09f589	0.1347257
41	0x3ef22a72	0.47298008
42	0x3e867011	0.26257375
43	0xbd376474	-0.044773534
44	0x3e85a1d1	0.2610002
45	0xbce0d446	-0.02744497
46	0xbec86d1a	-0.39145738
47	0xbea83cc3	-0.32858858
48	0x3e8ba331	0.27272943
49	0x3e446aae	0.1918132
50	0x3e4404de	0.19142482
51	0x3e98d395	0.29848924
52	0x3f4671d7	0.77517456
53	0x3e3e3e9b	0.1857857
54	0x3df4014f	0.11914312
55	0x3e6b346d	0.22969218
56	0x3dc04a4d	0.09389172
57	0x3e0f3757	0.13985954
58	0xbec390e8	-0.38196492
59	0xbec6fef2	-0.38866383
60	0x3caea1a4	0.02131731
61	0xbe8fe197	-0.281018
62	0xbe352e98	-0.17693555
63	0xbe9e0f35	-0.30870977
64	0xbe1a4367	-0.15064774
65	0xbe1f82b8	-0.15577209
66	0xbeb31cea	-0.34982997
67	0x3dcfca71	0.101460345
68	0x3ee0a981	0.4387932
69	0x3f324f46	0.6965221
70	0x3e8e4850	0.27789545
71	0x3ead4c18	0.33847117
72	0x3edeb947	0.4350073
73	0xbe3dfc8d	-0.18553372
74	0x3ebb732a	0.366113
75	0x3f02826d	0.50980264
76	0x3ecf5cb7	0.40500423
77	0x3e6ae470	0.22938704
78	0xbeb63741	-0.3558903
79	0xbd855719	-0.06510753
80	0x3edfedc1	0.4373608
81	0x3e8774fb	0.26456437
82	0x3e41b6cc	0.18917388
83	0x3eae4c9a	0.34042817
84	0x3e113631	0.14180829
85	0xbe149b4c	-0.14512366
86	0xbd998598	-0.07496184
87	0x3f3a4e45	0.7277568
88	0x3f3dbc38	0.74115324
89	0x3e9ab779	0.30218104
90	0x3eaed578	0.3414724
91	0x3ee5ab59	0.4485729
92	0xbea03c20	-0.31295872
93	0x3ecb4193	0.39698467
94	0xbe074de8	-0.13213313
95	0xbe1d7014	-0.15374786
96	0xbe90083a	-0.28131276
97	0x3ecc2586	0.39872378
98	0x3f082185	0.53176147
99	0x3e95bc14	0.29245055
100	0x3ea75cbc	0.32687938
101	0x3f1fea10	0.62466526
102	0xbf03cec3	-0.5148737
103	0x3e81996d	0.25312367
104	0xbe719537	-0.23592077
105	0x3f37e026	0.718264
106	0x3ea61150	0.32435083
107	0x3f2235bc	0.6336324
108	0x3d877257	0.066136055
109	0xbd535bc0	-0.05160117
110	0xbdc6ebbf	-0.09712934
111	0x3d49b832	0.049247928
112	0xbe40f2b1	-0.1884258
113	0xbcaaaa88	-0.020833269
114	0x3e277988	0.16354954
115	0x3edc519a	0.43031007
116	0xbeb2b004	-0.34899914
117	0x3e462ad7	0.1935228
118	0xbc2a05cd	-0.01037736
119	0x3ea05763	0.3131667
120	0xbe242bd4	-0.16032344
121	0xbd5fe4cc	-0.054661557
122	0x3d80a780	0.06281948
123	0x3ea69039	0.32531908
124	0x3ea01f75	0.31274
125	0x3f26e41c	0.6519182
126	0xbeca31ea	-0.39491206
127	0xbe30be8e	-0.17260191
128	0x3e0420ca	0.12903133
129	0x3f1dd3c0	0.6165123
130	0x3f094b7f	0.5363082
131	0x3d8277c3	0.06370499
132	0x3e991c38	0.29904342
133	0xbe9930a2	-0.29919916
134	0x3cee9c27	0.029127194
135	0xbdd5d186	-0.10440354
136	0xbe88b1f6	-0.26698273
137	0xbe921e9b	-0.28538975
138	0xbc2ca015	-0.010536213
139	0x3e80a594	0.25126326
140	0x3f1efa98	0.62101126
141	0x3ed8e676	0.42363328
142	0x3dd6db89	0.10491092
143	0x3ef74b87	0.4829981
144	0xbead8603	-0.33891305
145	0x3d21c7f8	0.039497346
146	0xbeec7310	-0.46181536
147	0x3f12d872	0.5736152
148	0x3eb5b48c	0.3548931
149	0x3d76771a	0.060172178
150	0xbf135873	-0.5755684
151	0x3cfd902c	0.030952536
152	0x3f1d45b5	0.6143449
153	0x3ef1d77a	0.47234708
154	0x3e5dde68	0.21666873
155	0xbcfe7c73	-0.031065201
156	0xbed33392	-0.41250283
157	0x3e88615a	0.26636773
158	0x3e4960c9	0.19665827
159	0x3eccfbe9	0.40035942
160	0x3dcf8a90	0.101338506
161	0x3f2741eb	0.6533496
162	0x3e3af7d5	0.18258603
163	0xbe83b8be	-0.25726885
164	0xbe78a13b	-0.24280255
165	0x3df26e66	0.11837463
166	0xbe36b276	-0.17841515
167	0xbe7ada04	-0.24497229
168	0xbeb59d9d	-0.35471812
169	0xbdc201ea	-0.09473021
170	0xbe29abbd	-0.16569419
171	0x3f49b452	0.7879077
172	0x3ebf8e2a	0.3741315
173	0x3ea0d4b9	0.31412295
174	0x3d7f5d50	0.06234485
175	0xbdb0f863	-0.08641126
176	0xbd1f17ec	-0.038841173
177	0xbe9b549c	-0.3033799
178	0x3e96ce9a	0.294545
179	0xbe63d7b3	-0.22250251
180	0xbdad23f8	-0.08454126
181	0x3ef4cfc8	0.47814775
182	0xbde6b1ef	-0.11264407
183	0x3eb041da	0.3442524
184	0x3ebea46c	0.3723482
185	0x3f06fdaa	0.5273081
186	0xbe85e3ca	-0.26150352
187	0x3ee28819	0.4424446
188	0x3f0c2924	0.54750276
189	0x3d165763	0.036704432
190	0x3e614d34	0.22002107
191	0x3f21b71e	0.6317004
192	0xbbc2800e	-0.0059356755
193	0xbe9205ae	-0.28519958
194	0xbe6520ff	-0.22375868
195	0xbcced586	-0.0252483
196	0x3d09d12f	0.03364676
197	0xbea9ebcd	-0.33187714
198	0x3f3bd022	0.7336446
199	0x3ed617f4	0.4181515
200	0xbeaff1fb	-0.34364304
201	0x3eda77e0	0.42669582
202	0xbd86dc69	-0.06585009
203	0x3d96e6ea	0.07368262
204	0x3e8fee2d	0.281114
205	0x3ee8fda0	0.45506
206	0x3c6798fa	0.014135594
207	0x3f04e89a	0.5191742
208	0x3e9c85a9	0.30570725
209	0x3e454707	0.19265376
210	0x3c772068	0.01508341
211	0x3ebb353d	0.36564055
212	0xbdb12fb8	-0.0865168
213	0x3ebb2a95	0.36555925
214	0x3e7011d9	0.23444308
215	0x3dd1e36d	0.10248456
216	0x3e00e0d5	0.12585767
217	0xbd5f8b81	-0.0545764
218	0x3ef15b93	0.47140178
219	0x3f29b861	0.66296965
220	0x3e907460	0.28213787
221	0x3f200ca7	0.62519306
222	0xbda14e26	-0.07876234
223	0x3e45df84	0.19323546
224	0xbe55594f	-0.2083485
225	0x3dcab5a5	0.09897927
226	0x3f3a0cf8	0.7267604
227	0x3ed4864a	0.41508704
228	0x3dd8d38f	0.105872266
229	0xbeff0e09	-0.49815395
230	0x3e73699c	0.23770756
231	0x3ecf38eb	0.40473112
232	0xbc999ab6	-0.01875053
233	0x3e8853a3	0.2662631
234	0x3df6f644	0.1205869
235	0xbd5c3c2e	-0.05376833
236	0xbf059099	-0.52173764
237	0xbd8e5d21	-0.06951357
238	0x3e2a2982	0.16617396
239	0x3e9b4ee8	0.30333638
240	0xbc80e16f	-0.015732495
241	0x3ec39bd7	0.38204834
242	0xbe2d656a	-0.16933218
243	0x3eee6ec9	0.46568897
244	0x3f23f508	0.64045763
245	0x3f17d5e6	0.5931076
246	0x3e350883	0.17679028
247	0xbda6c9cc	-0.081439584
248	0xbe0fa2bc	-0.14026922
249	0xbde7b5d1	-0.113139756
250	0xbc0b58f1	-0.008505092
251	0xbe3c9fe4	-0.18420368
252	0xbeaf9620	-0.34294224
253	0xbf32a856	-0.6978811
254	0x3e6ed53c	0.2332353
255	0xbe92f85e	-0.28705114

bias f4 [64]
0	0xbca50463	-0.020143693
1	0x3eb2589c	0.3483323
2	0x3e83c2c3	0.2573453
3	0x3ea701cd	0.3261856
4	0x3f06e077	0.52686256
5	0x3e6a6a00	0.22891998
6	0x3f05cab7	0.52262443
7	0x3ed0ba1e	0.40766996
8	0x3e29f807	0.16598521
9	0xbed0eb3f	-0.4080448
10	0x3ebf6634	0.37382662
11	0x3d5e6731	0.05429763
12	0x393fcc94	0.00018291391
13	0x3f27a096	0.6547941
14	0x3e316abd	0.17325874
15	0x3dd9b4b1	0.10630167
16	0x3f298b3c	0.6622808
17	0xbc6db1d9	-0.014507734
18	0xbed0b415	-0.40762392
19	0x3f10f9c6	0.56631124
20	0x3f2255a8	0.6341195
21	0x3f230b59	0.6368919
22	0xbe3e85c8	-0.18605721
23	0x3ca8359a	0.020533372
24	0x3f384058	0.7197318
25	0x3e830b1f	0.25594422
26	0x3ee4cd5e	0.44687933
27	0xbeaecad5	-0.34139124
28	0x3d1f6082	0.038910396
29	0xbe266d8f	-0.16252731
30	0x3f08f7fe	0.53503406
31	0x3f36b8b1	0.71375567
32	0x3e8a5ccb	0.2702392
33	0x3d893a44	0.067005664
34	0x3e783e32	0.24242476
35	0x3f23290b	0.637345
36	0x3ed8fb75	0.42379346
37	0x3f37351f	0.7156543
38	0x3e08c74a	0.13357273
39	0x3eaa16fc	0.3322066
40	0x3df6a6a8	0.12043506
41	0xbeb211b7	-0.3477914
42	0x3ee7230b	0.45143923
43	0x3ee7b3c9	0.45254353
44	0xbe6057f1	-0.21908547
45	0xbd4d5924	-0.05013384
46	0x3e9e358f	0.30900237
47	0x3ec894da	0.39176065
48	0x3f0ce60f	0.5503854
49	0x3e15bfe1	0.14623977
50	0x3ee859f9	0.45381144
51	0x3f0a6a46	0.5406841
52	0x3d1e6514	0.038670614
53	0x3f3bf386	0.7341846
54	0x3eb29652	0.3488031
55	0x3d2c0105	0.04199316
56	0x3e8e7659	0.27824667
57	0x399954c1	0.0002924558
58	0x3eba91ba	0.36439306
59	0x3ee8ccd2	0.45468765
60	0x3f173110	0.5905924
61	0x3f09f820	0.53894234
62	0x3f13c411	0.5772105
63	0xbda0901a	-0.07839985

weight f4 [32, 64]
0	0xbeb1ab72	-0.34701115
1	0x3e5612b1	0.20905568
2	0xbec2ee26	-0.38072318
3	0xbe6058fd	-0.21908946
4	0x3f73d969	0.95253617
5	0x3df8237a	0.121161416
6	0x3e491b22	0.19639257
7	0xbda6078a	-0.08106907
8	0x3e168958	0.1470083
9	0xbca67348	-0.020318642
10	0x3de2f670	0.110821605
11	0x3e827381	0.25478747
12	0x3ec931cf	0.39295813
13	0x3ee9080c	0.45513952
14	0x3e510f66	0.2041603
15	0x3e457fa1	0.19286968
16	0x3e9e11d7	0.30872986
17	0x3e9e6ca3	0.30942258
18	0x3d2a4df0	0.041578233
19	0xbe9d7167	-0.30750582
20	0x3e7239bf	0.23654841
21	0x3ef56cf0	0.47934675
22	0xbde88a72	-0.11354531
23	0x3eb8eb2a	0.36116916
24	0x3ebc95c5	0.36833015
25	0x3ecf8bb5	0.40536276
26	0x3ea277e5	0.31732097
27	0xbd454b25	-0.048167367
28	0x3e995a8d	0.29951897
29	0x3d83e9ee	0.06441103
30	0x3e04b351	0.12959029
31	0x3ebdaf9a	0.37048036
32	0xbde7b06c	-0.11312947
33	0xbcc8913c	-0.024483316
34	0x3ea6f72c	0.32610452
35	0x3e195269	0.14972843
36	0x3e86cf3b	0.2632998
37	0x3e3a3c19	0.18186988
38	0x3f023ba1	0.50872236
39	0x3ebc7ec2	0.3681546
40	0x3ea74081	0.326664
41	0x3dbd8c1c	0.09255239
42	0x3e8d4837	0.27594158
43	0x3e34f32a	0.17670885
44	0xbd4c3c6e	-0.049862318
45	0x3e5b42bb	0.21412174
46	0x3e608b1c	0.21928066
47	0x3df10078	0.117676675
48	0x3e834612	0.25639397
49	0x3eaa600a	0.33276397
50	0x3e8cc758	0.27495837
51	0x3ebd29d2	0.3694597
52	0x3ea6ddb6	0.32591027
53	0x3de95ea7	0.113950066
54	0x3e5b29a7	0.21402608
55	0x3e73f13d	0.23822494
56	0x3ebb9408	0.36636376
57	0x3ea61d6e	0.32444328
58	0x3e3beca2	0.18351987
59	0x3e2945ee	0.16530582
60	0x3e9b37e0	0.30316067
61	0x3e77d6a1	0.24202968
62	0x3e948f81	0.29015735
63	0x3eb0f828	0.34564328
64	0xbd86ddbe	-0.06585263
65	0xbdfa0ebe	-0.12209843
66	0x3dcdc0b6	0.10046522
67	0x3dfede62	0.1244476
68	0xbd9b356a	-0.07578547
69	0x3c59d9a0	0.013296515
70	0xbd396778	-0.04526469
71	0xbd59321c	-0.053026304
72	0xbddad3a2	-0.10684897
73	0xbdf98dba	-0.12185235
74	0x3ddcfa9a	0.10789986
75	0x3d954d30	0.07290113
76	0xbd2bcf5c	-0.0419458
77	0xbcd3f090	-0.025871545
78	0xbda2eb62	-0.07955052
79	0xbd3fdcd8	-0.046841472
80	0xbdad9760	-0.08476138
81	0xbdd97636	-0.1061825
82	0x3d5d06ec	0.05396168
83	0xbdfc2730	-0.12312162
84	0xbdcf0ad8	-0.1010949
85	0x3d9a46ce	0.07533036
86	0x3b093880	0.0020938218
87	0xbdb8310a	-0.089937285
88	0xbdd8202e	-0.10553013
89	0x3d9a0894	0.075211674
90	0x3d950e4e	0.07278119
91	0xbda88d4c	-0.08230075
92	0xbb3f5680	-0.0029195845
93	0x3d2c8340	0.042117357
94	0xbdc862e2	-0.097844854
95	0xbdb09cd2	-0.08623661
96	0xba5d5800	-0.0008443594
97	0x3bff6320	0.007793799
98	0x3ce198b0	0.027538627
99	0x3d965cb4	0.073419005
100	0xbd9e73fa	-0.077369645
101	0x3defa082	0.11700536
102	0x3c882d08	0.016623035
103	0xbda64682	-0.08118917
104	0x3c9eff60	0.019408882
105	0xbd7b8f18	-0.06141576
106	0xbcc532d0	-0.02407208
107	0xbdb49aa6	-0.08818559
108	0xbd406eb4	-0.046980575
109	0x3dc99dd2	0.09844555
110	0x3cde7a10	0.027157813
111	0x3daf85b2	0.08570422
112	0xbc28ae50	-0.010295466
113	0x3dabf170	0.0839566
114	0xbd493794	-0.04912527
115	0xbbb4f680	-0.005522549
116	0xbd87f7f4	-0.0663909
117	0x3c26c380	0.010178447
118	0xbd6f2a88	-0.05839017
119	0x3db0f698	0.08640784
120	0xbdc45f1c	-0.09588453
121	0xbd7103f0	-0.058841646
122	0xbd54fda4	-0.051999703
123	0xbd7b0b50	-0.061290085
124	0x3dec9ddc	0.11553547
125	0x3d5c3eac	0.053770706
126	0xbdcad6c2	-0.09904243
127	0x3c3440e0	0.0110017955
128	0xbec5b426	-0.38614005
129	0x3e0c61d9	0.13709201
130	0xbed1c2d5	-0.40968958
131	0xbe2e75b3	-0.17037086
132	0x3f534baf	0.8253736
133	0x3df45534	0.11930314
134	0x3e20ac84	0.1569081
135	0xbd22db60	-0.039759994
136	0x3e0a5f89	0.13513006
137	0xbdc39604	-0.095500976
138	0xbddaf8aa	-0.1069196
139	0x3e69f1ab	0.22846095
140	0x3e4bbcd8	0.19896257
141	0x3e45ff3d	0.19335647
142	0x3dadcbda	0.08486147
143	0x3d455dd8	0.0481852
144	0xbcdc7af5	-0.0269141
145	0x3e2327da	0.15933171
146	0x3d8afa64	0.067860395
147	0xbe988c8c	-0.2979473
148	0x3da4472d	0.08021388
149	0x3e8a4260	0.27003765
150	0x3cb50ff8	0.022102341
151	0xbc8b4e50	-0.017005116
152	0x3eb3073d	0.3496646
153	0x3e27a10f	0.16370033
154	0x3e33856e	0.17531368
155	0xbe00b3f2	-0.12568644
156	0x3e290482	0.16505626
157	0x3dd5687e	0.10420321
158	0xbc2d6c8e	-0.0105849635
159	0x3dcbf582	0.09958936
160	0xbd2dad7b	-0.042401772
161	0x3d58d9b3	0.05294199
162	0x3de8e2d3	0.11371388
163	0x3d9da964	0.07698324
164	0x3dec62c9	0.11542279
165	0x3d84aedc	0.06478664
166	0x3e88902b	0.2667249
167	0x3e800833	0.25006256
168	0x3e44e2b7	0.1922711
169	0xbcabce60	-0.02097243
170	0x3e422a81	0.18961526
171	0x3d35d32b	0.04439084
172	0xbdb37b9d	-0.08763812
173	0x3e8d4527	0.27591822
174	0x3e3571f8	0.17719257
175	0xbc364a60	-0.011126131
176	0x3e02e0e8	0.12781107
177	0x3dbda38b	0.09259709
178	0x3e9b933e	0.30385774
179	0x3ea5d771	0.3239093
180	0x3ded29a8	0.11580211
181	0x3d0a2680	0.033728123
182	0xbc871ced	-0.016493285
183	0x3e2b1cd8	0.16710222
184	0x3bfb9805	0.0076780342
185	0x3ddf4443	0.10901692
186	0x3da0f563	0.07859304
187	0x3cb4b121	0.022057118
188	0x3de1775b	0.110090934
189	0xbd9be58e	-0.076121435
190	0x3ebac288	0.3647654
191	0x3e1a72a9	0.15082802
192	0xbe9301a1	-0.2871218
193	0x3e84d0ea	0.2594064
194	0xbf20b2cc	-0.6277282
195	0xbe3a9da8	-0.18224204
196	0x3f6e9ad2	0.9320499
197	0x3bbd13c0	0.0057701766
198	0x3e29c72b	0.16579883
199	0x3cb1a5a0	0.021685421
200	0x3dec1976	0.11528294
201	0xbce711d0	-0.028206736
202	0xbc6c8920	-0.01443699
203	0x3e905470	0.2818942
204	0x3ebee0d6	0.3728091
205	0x3e8257c9	0.254576
206	0x3e88d7e2	0.26727206
207	0x3d7dd711	0.06197268
208	0x3d971889	0.073777266
209	0x3eba1d4d	0.3635048
210	0xbdf0f8b0	-0.117661834
211	0xbee3d6e8	-0.44499898
212	0x3eaefb57	0.34176132
213	0x3e9003a8	0.2812779
214	0x3c88d208	0.016701713
215	0x3e8b71b7	0.27235195
216	0x3eba14a7	0.3634388
217	0x3e8a1276	0.2696721
218	0x3e9e1d58	0.30881763
219	0x3e003d9e	0.12523505
220	0x3e8e4513	0.27787074
221	0xbca2cf40	-0.019874215
222	0x3dd87dbb	0.10570856
223	0x3dc1175d	0.09428284
224	0x3dd0b6a2	0.101910844
225	0xbdaf7e45	-0.08569006
226	0x3de6f6dc	0.112775534
227	0x3e14da95	0.14536507
228	0x3e5c633f	0.21522234
229	0x3e69ea61	0.22843315
230	0x3eecdedd	0.4626378
231	0x3ea36ffd	0.31921378
232	0x3e711c24	0.23545891
233	0xbd9d5136	-0.076815054
234	0x3e18e036	0.1492928
235	0x3e8f4b95	0.27987352
236	0xbd813e99	-0.06310768
237	0x3e80110a	0.25013
238	0x3e6e6291	0.23279788
239	0xbdef6a9a	-0.116902545
240	0x3ed93830	0.4242568
241	0x3e523f4b	0.20531957
242	0x3e9a7d17	0.3017356
243	0x3ed6181e	0.41815275
244	0x3e7a8851	0.24466063
245	0x3d2c285e	0.042030685
246	0x3e18e254	0.14930087
247	0x3e53d689	0.20687307
248	0x3e89b369	0.26894692
249	0x3e946541	0.289835
250	0x3d6a90ae	0.057266884
251	0x3ea78a5e	0.32722753
252	0x3e80d450	0.25161982
253	0x3d2be514	0.041966513
254	0x3eb63732	0.35588986
255	0x3e527180	0.2055111

bias f4 [32]
0	0x3ea5bc86	0.32370394
1	0xbdd5b56e	-0.104349956
2	0x3e37f5e5	0.17964895
3	0x3e138c22	0.14408925
4	0x3e86ef18	0.2635429
5	0xbdfb2764	-0.122633725
6	0x3df89ca5	0.121392526
7	0xbde65b54	-0.11247888
8	0x3be4ea88	0.006985966
9	0x3d949732	0.07255401
10	0x3db2f3e5	0.087379254
11	0x3d623c20	0.05523312
12	0xbcade5d8	-0.021227762
13	0x3d5c0c62	0.053722747
14	0x3e1d030c	0.15333194
15	0x3e41abe0	0.18913221
16	0x3e2d1877	0.16903864
17	0x3cbf4584	0.023348577
18	0x3db789f8	0.08961862
19	0xbda5f256	-0.081028625
20	0xbd35ba98	-0.044367403
21	0xbd841a82	-0.064503685
22	0xba88fe6c	-0.00104518
23	0x3e187dd7	0.14891754
24	0x3dadff48	0.08495957
25	0x3eba8f89	0.36437634
26	0x3e09d925	0.1346174
27	0x3ea70888	0.32623696
28	0xbd5e97f4	-0.054344133
29	0x3e9ca307	0.3059313
30	0x3d66d208	0.056352645
31	0x3d6fe6d0	0.05856973

weight f4 [12, 32]
0	0xbdd40c78	-0.10353941
1	0x3e12f595	0.14351495
2	0xbd7c41d4	-0.061586216
3	0xbe75274a	-0.23940769
4	0xbe6e32c0	-0.23261547
5	0x3d009321	0.031390313
6	0xbe2e82be	-0.17042062
7	0x3dd60362	0.10449864
8	0xbe117e70	-0.14208388
9	0xbe17b010	-0.14813256
10	0x3ddd92d3	0.1081902
11	0xbe4b330b	-0.1984369
12	0xbd8a429b	-0.06750985
13	0xbbf279e3	-0.007399784
14	0xbe95924f	-0.29213187
15	0xbea79867	-0.3273346
16	0xbea17a65	-0.31538692
17	0xbdb6551f	-0.08902954
18	0xbc51e3df	-0.012810676
19	0x3d9e6ee3	0.07735994
20	0x3d017174	0.031602338
21	0x3d86be12	0.06579222
22	0x3d1c3298	0.038134187
23	0xbe3e0b57	-0.18559013
24	0x3d9f26e8	0.07771093
25	0xbec6f629	-0.3885968
26	0xbe99126d	-0.2989687
27	0xbe59377a	-0.21212569
28	0x3d6995f4	0.057027772
29	0xbea2be1e	-0.31785673
30	0x3dedaa41	0.11604739
31	0xbd3fd0f1	-0.04683012
32	0xbeb7978d	-0.35857812
33	0x3e1f7d87	0.15575229
34	0xbe4df366	-0.2011238
35	0xbe8648fc	-0.26227558
36	0xbec92cb4	-0.39291918
37	0xbddcaf11	-0.10775579
38	0xbe908a1d	-0.28230372
39	0xbdb1e2ea	-0.086858585
40	0xbe95739b	-0.29189762
41	0xbea63177	-0.32459614
42	0xbdb41e01	-0.08794785
43	0xbeb55155	-0.35413614
44	0xbbd3b89e	-0.006461217
45	0x3e2a2cb7	0.1661862
46	0xbd5827a1	-0.052772168
47	0xbea329d2	-0.31867844
48	0xbe95cd91	-0.29258397
49	0xbd6caafb	-0.057780247
50	0xbda610e9	-0.08108694
51	0x3dd172de	0.10226987
52	0xbdd2450e	-0.102670774
53	0x3db51a0c	0.08842859
54	0x3d4c0095	0.049805243
55	0xbe7939ed	-0.24338503
56	0xbdec16aa	-0.1152776
57	0xbd9a2983	-0.07527449
58	0xbe49fa5a	-0.19724408
59	0xbe7e3072	-0.24823168
60	0x3d00ae63	0.031416308
61	0xbe8dbcdc	-0.2768315
62	0x3e1df95a	0.15427151
63	0xbc92014f	-0.01782289
64	0xbebc6392	-0.36794716
65	0xbe316df7	-0.17327105
66	0xbe355edc	-0.17711967
67	0xbe256d31	-0.16154934
68	0xbeb234d9	-0.34805945
69	0x3e0b6a1c	0.13614696
70	0xbeb00011	-0.3437505
71	0x3d8b9fd4	0.06817594
72	0xbe638ed4	-0.22222453
73	0xbe2f1e29	-0.17101349
74	0xbda884a8	-0.08228427
75	0xbd82a05f	-0.063782446
76	0x3e0c7d7a	0.1371974
77	0x3e01fbae	0.12693664
78	0xbe781792	-0.24227741
79	0xbd85ebf7	-0.06539147
80	0xbe91928a	-0.28432113
81	0xbc7ff8a5	-0.015623246
82	0x3deb4cb2	0.11489238
83	0x3dc3c04a	0.095581606
84	0xbc3fb03d	-0.011699733
85	0xbe39d3ec	-0.18147248
86	0x3db9b42a	0.09067567
87	0xbe390e93	-0.18071966
88	0x3e2a09da	0.1660532
89	0xbe47e3e5	-0.19520529
90	0xbe92e8d8	-0.2869327
91	0xbe0d5f90	-0.13805985
92	0x3d2de478	0.042454213
93	0xbebf3a09	-0.37348965
94	0x3dca2952	0.098711625
95	0x3dfa8e02	0.12234117
96	0xbe9283df	-0.28616235
97	0xbd848200	-0.06470108
98	0xbe946977	-0.28986713
99	0xbe0e0517	-0.13869129
100	0xbe659f5b	-0.2242407
101	0x3d200a47	0.0390723
102	0xbe94a1df	-0.29029748
103	0xbe2fd84c	-0.17172354
104	0xbda5e1de	-0.08099721
105	0xbd964a7b	-0.07338425
106	0xbdafa67d	-0.08576677
107	0xbebb11e3	-0.36537084
108	0xbdd05d08	-0.10173994
109	0x3e1181f8	0.14209735
110	0xbe4ebc71	-0.20189072
111	0xbe14eb4c	-0.14542884
112	0xbeb18960	-0.3467512
113	0xbdb0d084	-0.08633521
114	0x3de0dd14	0.10979667
115	0xbd0fb267	-0.035082247
116	0xbd1557ea	-0.036460795
117	0xbe5bb8ce	-0.21457216
118	0xbe3146f2	-0.1731222
119	0xbed389aa	-0.41315967
120	0xbe0f7eac	-0.14013165
121	0xbe98b002	-0.29821783
122	0xbe0a4e3b	-0.13506405
123	0xbebd1548	-0.369303
124	0x3dea0c78	0.114281595
125	0xbdfcc6fc	-0.12342641
126	0xbdf634d5	-0.12021796
127	0xbdce6fe1	-0.10079933
128	0xbd9b9849	-0.075974055
129	0x3e32daf4	0.17466336
130	0xbe813ace	-0.25240177
131	0xbe9775d6	-0.2958209
132	0xbe8e7924	-0.27826798
133	0x3bff267a	0.007786569
134	0xbeb27f0a	-0.34862548
135	0xbe0dc128	-0.13843215
136	0xbd49e08b	-0.049286406
137	0xbe9f5fd4	-0.311278
138	0xbb1f3237	-0.0024291405
139	0xbda9692e	-0.082720146
140	0xb98b08ed	-0.00026518796
141	0x3dd5aa32	0.10432853
142	0xbe472989	-0.19449438
143	0xbec145cd	-0.37748566
144	0xbea46258	-0.3210628
145	0xbe89ff95	-0.26952806
146	0xbd7725f3	-0.060338926
147	0xbd30cd1e	-0.043164365
148	0xbe2c7795	-0.16842492
149	0xbdfc549d	-0.12320826
150	0xbe12f547	-0.14351378
151	0xbeb1c98c	-0.3472408
152	0x3d28ecd1	0.04124147
153	0xbdca2cc7	-0.09871822
154	0xbe3b735d	-0.18305726
155	0xbd9eabbd	-0.077476
156	0xbddc3310	-0.10751927
157	0xbebb0f8b	-0.36535296
158	0x3df7b615	0.12095276
159	0x3df1bd5b	0.11803695
160	0xbe8425da	-0.25810128
161	0x3e298ecf	0.16558383
162	0xbe07aaf8	-0.13248813
163	0xbe666748	-0.22500336
164	0xbe98ca7b	-0.2984198
165	0x3d23e37c	0.040011868
166	0xbebf98e7	-0.37421343
167	0x3d1e45e1	0.03864086
168	0xbe5e66ce	-0.21718904
169	0xbe4cd3f7	-0.20002733
170	0xbdcf5ae8	-0.10124761
171	0xbe75eb71	-0.24015595
172	0x3e11c16b	0.1423394
173	0xbde35d3a	-0.11101766
174	0xbe06e0ee	-0.13171741
175	0xbe725441	-0.23664953
176	0xbeb8e920	-0.3611536
177	0xbda1b61a	-0.07896061
178	0x3de55297	0.111973934
179	0x3cddaef3	0.027060961
180	0x3d9238ff	0.071397774
181	0x3dd554f9	0.10416598
182	0x3e076c81	0.13224985
183	0xbecf75f5	-0.40519682
184	0x3e2541aa	0.1613833
185	0xbe232657	-0.15932594
186	0xbe18775f	-0.14889286
187	0xbe2dfb2c	-0.16990346
188	0x3de90bdb	0.113792144
189	0xbe8bbf3e	-0.27294344
190	0x3bb33292	0.005468675
191	0x3d4aa0a0	0.04946959
192	0xbec431b4	-0.3831917
193	0xbd87730c	-0.0661374
194	0xbd9cfcce	-0.07665406
195	0xbdba8867	-0.09108048
196	0xbea77157	-0.3270366
197	0xbdd5f324	-0.10446766
198	0xbea6c2e0	-0.32570553
199	0xbd76e112	-0.060273238
200	0xbe58ca04	-0.21170813
201	0xbe87dcd7	-0.26535675
202	0x3d724938	0.059151858
203	0xbe42e26f	-0.1903169
204	0x3e1b4d0c	0.1516611
205	0xbd5a3395	-0.05327185
206	0xbe7a1f73	-0.2442606
207	0xbe939851	-0.28827146
208	0xbea02feb	-0.31286559
209	0xbe2a6a34	-0.16642076
210	0x3dfb2774	0.122633845
211	0xbdc1057d	-0.09424875
212	0x3d5188ce	0.051155858
213	0x3d9eddac	0.07757124
214	0x3e1056a2	0.14095548
215	0xbe457a26	-0.19284877
216	0x3d6b1548	0.057393342
217	0xbe96e8d9	-0.29474524
218	0xbe60478f	-0.21902297
219	0xbe4018f3	-0.18759517
220	0x3d4e5275	0.050371606
221	0xbdf5176a	-0.119673565
222	0x3d98d146	0.07461791
223	0x3d8ec08c	0.06970319
224	0xbdeeb03e	-0.11654709
225	0xbd1b3476	-0.037891828
226	0x3cda04fe	0.026613709
227	0xbe7bdeed	-0.24596758
228	0xbeb3ed18	-0.35141826
229	0x3da91e78	0.082577646
230	0xbe5fe2b0	-0.21863818
231	0xbbc3e78c	-0.0059785303
232	0x3b2e122c	0.0026561124
233	0xbe38e17e	-0.18054768
234	0x3d508b34	0.050914004
235	0xbe1667f0	-0.14688087
236	0xbddd0ba8	-0.10793239
237	0x3d5d53fc	0.054035172
238	0xbec37394	-0.38174117
239	0xbe27a13d	-0.16370101
240	0xbeafd9b4	-0.34345782
241	0xbe7e9c3c	-0.24864286
242	0x3de5c523	0.112192415
243	0x3ce77133	0.02825222
244	0x3d115cad	0.035488773
245	0xbdb82665	-0.08991698
246	0x3e1e08c5	0.15433033
247	0xbdc8a04f	-0.097962014
248	0xbdb12012	-0.08648695
249	0xbe9fb06c	-0.31189287
250	0xbe70c4eb	-0.23512618
251	0xbea56a9d	-0.32307902
252	0x3e01937d	0.12653919
253	0xbe998354	-0.29983008
254	0x3d658605	0.056036014
255	0xbdfc5c26	-0.123222634

bias f4 [12]
0	0xbe593c3f	-0.21214388
1	0xbe5acb2f	-0.21366571
2	0x3d45dace	0.04830437
3	0xbec9fde7	-0.39451525
4	0xbe30d307	-0.17268
5	0xbe0609d5	-0.13089688
6	0xbe9c1ffd	-0.30493155
7	0xbc375725	-0.0111902105
8	0xbe69afb0	-0.22820926
9	0x3d58f9cb	0.052972596
10	0xbe5b6a75	-0.21427329
11	0xbe8f70a6	-0.2801563
