src/rl/networks/most_recently_saved_network.pkl (torch, 23525 bytes, 6 tensors)

weight f4 [64, 6]
0	0xbdcf6e31	-0.10128439
1	0x3e58b4b4	0.21162683
2	0xbec74ee8	-0.38927388
3	0xbd7037b0	-0.058646858
4	0x3ece1a0a	0.4025424
5	0x3e98c66c	0.29838884
6	0xbdea6899	-0.11445732
7	0xbde316f1	-0.1108836
8	0xbe3f4479	-0.18678464
9	0x3e43e07a	0.191286
10	0x3d1e68d6	0.038674198
11	0xbdb8ddfb	-0.090267144
12	0x3ea0f2d9	0.31435278
13	0x3e5e378f	0.21700881
14	0x3e95eee1	0.29283813
15	0x3e7a7832	0.24459913
16	0x3de0d1ff	0.109775536
17	0x3de01609	0.10941703
18	0xbe307945	-0.1723376
19	0xbebe76e6	-0.37200087
20	0x3ebcc346	0.36867732
21	0x3d907a74	0.07054606
22	0xbd69e87c	-0.05710648
23	0xbdc889e3	-0.09791925
24	0x3e0dcfc9	0.13848795
25	0xbe2760d9	-0.16345538
26	0x3ea32079	0.31860712
27	0xbecf4a9f	-0.4048662
28	0xbab1c29f	-0.001356203
29	0xbea598d6	-0.32343167
30	0xbe18c592	-0.14919117
31	0x3e95d405	0.2926332
32	0x3e8c1f07	0.27367422
33	0x3e4e709c	0.20160145
34	0xbeb5336d	-0.35390797
35	0x3d952659	0.07282705
36	0xbc29055f	-0.010316222
37	0x3ec42505	0.38309494
38	0x3ca72274	0.02040217
39	0x3e53b79d	0.20675512
40	0x3d738553	0.05945332
41	0x3e8ea406	0.27859515
42	0x3ee413f4	0.44546473
43	0x3dc2fdf8	0.09521097
44	0xbd897011	-0.06710828
45	0xbe961a34	-0.29316866
46	0x3df1af77	0.118010454
47	0x3ed21a3f	0.4103565
48	0xbeb548a7	-0.35406992
49	0xbe0708d2	-0.13186958
50	0xbd39e62b	-0.04538552
51	0xbe16f235	-0.14740832
52	0xbe29475e	-0.1653113
53	0xbea90c87	-0.3301737
54	0x3ebe6b14	0.3719107
55	0x3ebc808e	0.3681683
56	0xbd8137dc	-0.063094825
57	0x3e56c4ec	0.20973557
58	0xbe9a6d82	-0.30161673
59	0xbeba05e8	-0.3633263
60	0xbd5ec2d4	-0.05438502
61	0xbe5a8126	-0.21338329
62	0xbec035aa	-0.37540942
63	0xbe6d0507	-0.23146449
64	0xbe1e170f	-0.15438484
65	0xbecb3166	-0.39686126
66	0x3e50cd59	0.20390834
67	0x3e13e3ad	0.1444232
68	0xbe25a59c	-0.16176456
69	0xbeafb6b7	-0.34319088
70	0x3e803889	0.25043133
71	0xbe22a702	-0.15884021
72	0x3d416416	0.04721459
73	0x3e8bfbe6	0.2734062
74	0x3ec4b674	0.3842045
75	0xbdbaa5a7	-0.09113627
76	0x3d6cea74	0.05784078
77	0x3e804f3c	0.2506045
78	0x3e9919e4	0.29902565
79	0xbe6fdf21	-0.2342496
80	0xbec17509	-0.37784603
81	0x3e975d07	0.29563162
82	0xbe097fd5	-0.1342767
83	0xbeb93f20	-0.36180973
84	0xbe0d6fd3	-0.13812189
85	0xbeb0d41e	-0.34536833
86	0xbecbdf6d	-0.39818898
87	0xbea2ade3	-0.3177329
88	0xbebfa6ff	-0.37432095
89	0x3e6e18d3	0.23251657
90	0x3c55ba28	0.013044871
91	0xbe3d214f	-0.18469737
92	0x3eb2b8d8	0.3490665
93	0x3ce89298	0.028390214
94	0xbd7ff6a2	-0.062491067
95	0x3eb78ca8	0.358495
96	0xbda4c32d	-0.08045039
97	0x3e834e72	0.25645787
98	0x3c894517	0.016756577
99	0x3e3caca0	0.18425226
100	0x3e69de24	0.22838646
101	0xbc090a76	-0.0083643105
102	0x3d07a3d1	0.033115212
103	0xbe453264	-0.19257504
104	0xbe268223	-0.1626058
105	0xbe3a16cd	-0.1817276
106	0xbe62f665	-0.22164305
107	0xbde505d7	-0.111827545
108	0x3ec3274a	0.38115913
109	0xbd286141	-0.041108374
110	0x3e28ed56	0.16496786
111	0x3db72c2a	0.089439705
112	0xbebaad96	-0.3646056
113	0xbda397b1	-0.07987917
114	0xbe6a511d	-0.22882505
115	0x3ed2bdcd	0.41160432
116	0xbe69d354	-0.22834522
117	0x3c292443	0.010323587
118	0x3e12d84e	0.14340326
119	0xbdfad0db	-0.12246867
120	0x3ecb36ee	0.39690346
121	0xbec265c6	-0.37968272
122	0x3d920c8e	0.07131301
123	0x3e89f9c5	0.26948372
124	0x3e0169cf	0.12638019
125	0xbe0e8ade	-0.13920161
126	0x3e93cf01	0.2886887
127	0xbeb11652	-0.34587342
128	0x3db5495c	0.08851883
129	0x3d7c7eb4	0.06164427
130	0x3e80e25f	0.25172707
131	0x3e7e1f6a	0.24816671
132	0x3dc44fd3	0.09585538
133	0x3e4e1ca2	0.2012811
134	0x3e26eb46	0.16300687
135	0x3e7e8c1b	0.24858133
136	0xbe84fe0a	-0.25975066
137	0x3e16912e	0.14703819
138	0x3e104d68	0.14092028
139	0xbead53c5	-0.33852974
140	0xbe7b8888	-0.24563801
141	0xbdaeef2e	-0.08541714
142	0x3eadf71d	0.33977595
143	0xbe64acd1	-0.22331549
144	0x3e4c1696	0.19930491
145	0xbe29d0a4	-0.16583496
146	0x3be245f2	0.006905311
147	0xbe98a859	-0.2981594
148	0xbe5b415c	-0.21411651
149	0xbe3deb56	-0.18546805
150	0xbdab3e67	-0.08361512
151	0x3e631839	0.22177209
152	0xbe014b71	-0.12626435
153	0x3e93ae4a	0.2884391
154	0xbe8ba8f7	-0.27277347
155	0x3e8ed9f2	0.27900654
156	0x3e964d67	0.29355928
157	0x3e5ba1b1	0.21448399
158	0xbe29ea1d	-0.16593213
159	0xbe479bc7	-0.19493018
160	0x3ea9097f	0.33015057
161	0xbe28c3ea	-0.16480985
162	0xbdb5f50d	-0.0888463
163	0x3ddfa350	0.10919821
164	0xbe3760c3	-0.17908005
165	0xbc89d20b	-0.01682379
166	0x3e3fe104	0.1873818
167	0xbe45aec6	-0.19304952
168	0x3e961e1c	0.29319847
169	0xbe329af1	-0.17441918
170	0x3eb7f27f	0.35927197
171	0xbe8c6178	-0.27418113
172	0xbe987f36	-0.29784554
173	0xbec201a4	-0.37891877
174	0xbdc35d2c	-0.095392555
175	0x3ef14831	0.4712539
176	0x3d7ecef0	0.06220907
177	0xbdf458ee	-0.119310245
178	0x3ca5faf3	0.020261263
179	0x3ecd1eb9	0.40062502
180	0x3dd77f7d	0.10522363
181	0xbe983d62	-0.2973433
182	0xbdc45c07	-0.09587865
183	0x3e09f150	0.1347096
184	0x3dc1b0e3	0.094575666
185	0x3e69f884	0.22848707
186	0xbe86e506	-0.26346606
187	0xbd55d3ce	-0.052203946
188	0x3e370cca	0.17875972
189	0xbee4d7cc	-0.4469589
190	0x3e5e21bb	0.21692555
191	0x3e94288a	0.2893718
192	0x3ec4f057	0.38464615
193	0xbe9a1dd2	-0.30100876
194	0x3df49e3a	0.11944242
195	0x3e7f80fa	0.24951544
196	0xbe1d87b9	-0.15383805
197	0x3e96d0e0	0.29456234
198	0xbe44de24	-0.19225365
199	0x3ebd0218	0.3691566
200	0x3e66cbc8	0.22538674
201	0x3e1df20e	0.15424368
202	0xbe775e9b	-0.24157183
203	0x3ee37fb4	0.44433367
204	0xbdc462e9	-0.09589178
205	0xbd802eb8	-0.06258911
206	0x3d95611b	0.07293912
207	0xbe9e2f89	-0.3089564
208	0xbe08ac70	-0.1334703
209	0xbe8c49ec	-0.27400148
210	0x3c3a3932	0.0113661755
211	0xbd3e0598	-0.046392053
212	0xbd8188bc	-0.06324908
213	0xbe048a35	-0.12943347
214	0x3ebe8771	0.3721271
215	0xbe435b1e	-0.19077727
216	0x3ecb8d0b	0.39756045
217	0x3eb22e2e	0.34800857
218	0x3cb74c4d	0.02237525
219	0x3eaa5e0a	0.3327487
220	0xbe3e9a95	-0.18613656
221	0x3e4ea57d	0.20180316
222	0xbeac06fe	-0.33599085
223	0x3ebaa126	0.36451072
224	0xbe9fbf80	-0.3120079
225	0xbe848dab	-0.25889334
226	0x3e411664	0.18856198
227	0x3ecce8b2	0.40021282
228	0xbeb17bbc	-0.34664714
229	0x3d80f780	0.06297207
230	0xbe76218a	-0.24036232
231	0xbdec44a8	-0.11536533
232	0x3dec2d16	0.11532037
233	0xbe488246	-0.19580945
234	0x3ebc40d0	0.36768198
235	0x3cd4c042	0.025970582
236	0xbead66ac	-0.33867395
237	0xbe3192d9	-0.17341174
238	0xbeaa54a5	-0.33267704
239	0x3e691d6f	0.22765134
240	0xbe9eb372	-0.3099628
241	0x3eaaa3cd	0.33328095
242	0x3dbad7f5	0.09123222
243	0xbe1ecd5d	-0.15508027
244	0x3e4b80d2	0.1987336
245	0x3d948619	0.072521396
246	0xbe90df3c	-0.28295314
247	0xbe95bd22	-0.2924586
248	0x3e5e8b83	0.21732907
249	0xbe8a3a27	-0.26997492
250	0x3eccaf86	0.39977664
251	0xbe25b662	-0.16182855
252	0x3e0179d5	0.12644131
253	0xbea9299a	-0.33039552
254	0x3eaaf054	0.3338648
255	0x3ea2d88e	0.31805843

bias f4 [64]
0	0x3d9a6dba	0.0754046
1	0xbe7b3f2a	-0.24535814
2	0xbe340483	-0.17579846
3	0x3d9529b6	0.07283346
4	0x3da9e269	0.082951374
5	0xbe1e7e3a	-0.15477839
6	0x3e81007d	0.25195685
7	0x3ea43938	0.32074904
8	0xbe1748f9	-0.1477393
9	0x3e773328	0.24140608
10	0x3e796036	0.24353108
11	0x3eaeeb22	0.34163767
12	0xbcd43c96	-0.025907796
13	0xbd15328a	-0.03642515
14	0x3e2275c3	0.15865235
15	0xbeb22b80	-0.34798813
16	0x3ece79c3	0.40327272
17	0xbb7e8d69	-0.0038841611
18	0xbecdeaf6	-0.40218323
19	0x3ed8b91e	0.42328733
20	0x3da7955c	0.08182785
21	0xbb357f74	-0.0027694376
22	0x3ec1b9b1	0.37836984
23	0xbe2bdd4d	-0.16783638
24	0xbe26d9d2	-0.1629403
25	0x3e0ecebc	0.1394605
26	0x3dd53f3f	0.10412454
27	0xbeaf05f5	-0.34184232
28	0x3ea4b6fc	0.32170856
29	0x3ec8a32a	0.39186984
30	0x3ea067ab	0.31329092
31	0x3e14e067	0.14538728
32	0xbd7ed67e	-0.062216274
33	0x3e532318	0.20618856
34	0xbe3d8747	-0.18508635
35	0xbe4c3d47	-0.1994525
36	0x3e9c3a01	0.30513003
37	0xbe1e01ce	-0.15430376
38	0x3da22a99	0.07918281
39	0xbe85ca0c	-0.26130712
40	0xbe5b499a	-0.21414796
41	0x3ec4e138	0.38453078
42	0xbcef3a0b	-0.029202482
43	0x3da4f119	0.08053798
44	0xbd9433fb	-0.07236477
45	0x3ee7e213	0.45289668
46	0xbe4820de	-0.19543788
47	0xbe9f7091	-0.3114057
48	0xbe661ac2	-0.22471145
49	0xbe1ab338	-0.15107429
50	0xbdc115a9	-0.094279595
51	0xbe81c70f	-0.25347182
52	0x3e316d48	0.17326844
53	0xbe3c0937	-0.1836289
54	0xbe5fe1b8	-0.21863449
55	0xbe09fdf8	-0.13475788
56	0xbe785f9d	-0.24255224
57	0xbe340118	-0.17578542
58	0xbdf6c112	-0.12048544
59	0x3e2f3fe4	0.17114216
60	0xbe874406	-0.26419085
61	0x3e6ed272	0.23322466
62	0x3e53ef2d	0.20696707
63	0x3db271c2	0.08713104

weight f4 [64, 64]
0	0xbd7a7eac	-0.06115596
1	0xbddcb38e	-0.10776435
2	0xbdafff48	-0.08593613
3	0xbd8fdd8c	-0.070246786
4	0xbd43b424	-0.047779217
5	0xbc8ffb18	-0.017575786
6	0xbde1225c	-0.10992882
7	0x3b8b48e0	0.0042506307
8	0xbde07416	-0.10959642
9	0x3c9a23f0	0.018815964
10	0x3cab45a0	0.020907223
11	0xbdde8ff8	-0.108673036
12	0x3db3326c	0.087498516
13	0x3d11a240	0.035555124
14	0x3d09f4ec	0.03368084
15	0xbd0d5318	-0.034503073
16	0x3d79b4fc	0.060963616
17	0x3c572830	0.01313214
18	0x3dfcf192	0.123507634
19	0x3dec0b48	0.11525589
20	0xbd50b530	-0.050954044
21	0x3bcb62e0	0.006206855
22	0xbc9685c0	-0.018374324
23	0xbdcc7642	-0.099834934
24	0x3de3496c	0.110979885
25	0xbdb5fc80	-0.08886051
26	0xbd461744	-0.04836203
27	0xbd863210	-0.065525174
28	0x3dc28634	0.094982535
29	0xbcf654f8	-0.030069813
30	0x3d92d218	0.071689785
31	0xbdc828b6	-0.0977339
32	0xbd161d98	-0.036649317
33	0xbdb47fd6	-0.08813445
34	0x3db5f6c2	0.08884956
35	0x3dc33022	0.09530665
36	0x3df0f5b8	0.11765617
37	0x3b7e4640	0.0038799196
38	0xbd61bba0	-0.055110574
39	0x3cf5a418	0.029985473
40	0x3c7f3180	0.015575767
41	0xbd361538	-0.04445383
42	0xbc8dd2b0	-0.017312378
43	0x3ddd434a	0.1080385
44	0xbcbc4d48	-0.02298607
45	0xbdf77dda	-0.12084551
46	0xbd7bdf90	-0.061492503
47	0x3dc50d00	0.0962162
48	0xbdaa2c78	-0.08309263
49	0xbc5fc860	-0.013658613
50	0xbd86e0b2	-0.06585826
51	0xbd86b22a	-0.06576951
52	0xbd0df90c	-0.034661338
53	0xbd01fda8	-0.031736046
54	0x3db3e9b0	0.08784807
55	0xbcae0388	-0.021241918
56	0x3dce7f92	0.10082926
57	0xbba99e20	-0.0051763207
58	0x3cf374c8	0.029718772
59	0xbd9f9b26	-0.07793264
60	0xbbfc0940	-0.0076915324
61	0x3da27510	0.07932484
62	0x3d29b654	0.041433647
63	0xbdece252	-0.11566605
64	0xbd37dd38	-0.044888705
65	0x3c9eb238	0.01937209
66	0xbcf58694	-0.029971398
67	0xbacc9e00	-0.0015611053
68	0xbddcb26a	-0.10776217
69	0x3cb93eaf	0.022612898
70	0x3cb9c640	0.02267754
71	0xbdea9c44	-0.114555866
72	0x3dbb55f4	0.09147254
73	0x3d2e4cc2	0.04255367
74	0x3d756984	0.05991508
75	0x3d5ce098	0.053925127
76	0xbe037c72	-0.12840441
77	0xbd17f5d8	-0.03709969
78	0xbcec8090	-0.028869897
79	0xbdbb7bb4	-0.09154454
80	0x3daaeef4	0.08346358
81	0xbdb20740	-0.08692789
82	0x3d2385e0	0.039922595
83	0x3ce8b84b	0.02840819
84	0xbda8baac	-0.0823873
85	0xbd2d9514	-0.0423785
86	0x3d43efb0	0.047836006
87	0xbd4b9bec	-0.049709246
88	0x3dbbd35a	0.091711715
89	0x3dd6ce8f	0.10488617
90	0xbdf6dcda	-0.12053843
91	0xbda5d152	-0.08096565
92	0xbcd69a98	-0.026196763
93	0x3c848df5	0.016180972
94	0xbccc1fb0	-0.024917454
95	0xbdbe7cd9	-0.093011566
96	0x3c58bae0	0.013228148
97	0x3d2d46d8	0.04230389
98	0xbd0d32a0	-0.034472108
99	0xbd48594c	-0.048913285
100	0x3c7d645a	0.01546582
101	0xbd6705ab	-0.05640189
102	0x3d1a2944	0.03763701
103	0x3cfbfdd0	0.030760676
104	0xbd59e6b4	-0.05319853
105	0x3d22323c	0.03959869
106	0x3df6ec5c	0.12056801
107	0xbdfc6496	-0.12323873
108	0x3c0b5b31	0.008505628
109	0x3cbaf4cc	0.022821806
110	0xbdc77114	-0.09738365
111	0x3dd9c36d	0.10632978
112	0x3dd5dad5	0.104421295
113	0x3c9212a9	0.017831163
114	0x3d7851fc	0.06062506
115	0xbcaac93b	-0.020847907
116	0x3d8cb471	0.06870354
117	0xbd4b0146	-0.04956176
118	0xbd842277	-0.06451886
119	0x3de43ab2	0.11144008
120	0x3ddf191f	0.10893463
121	0xbcf27fe0	-0.029601991
122	0x3dc38a12	0.09547819
123	0xbab5c3b9	-0.0013867534
124	0x3c89bfa0	0.016815007
125	0xbd22114a	-0.03956727
126	0x3da1f86d	0.079087116
127	0xbdf91329	-0.12161858
128	0x3d26bdd9	0.040708397
129	0xbdf34498	-0.118783176
130	0x3d7859aa	0.060632385
131	0x3dba7c46	0.091057345
132	0xbd9100ac	-0.07080206
133	0xbb9bee6b	-0.0047586462
134	0x3e29fdb4	0.16600686
135	0xbd4f4224	-0.050600186
136	0x3c77c910	0.015123621
137	0x3d8a2afe	0.06746481
138	0xbda8e26e	-0.08246313
139	0x3c39719f	0.011318593
140	0xbd496324	-0.049166813
141	0xbd87f280	-0.0663805
142	0x3d874d58	0.06606549
143	0xbdb11a66	-0.08647613
144	0x3d61b5ff	0.055105206
145	0x3df6453c	0.12024924
146	0xbd03b2c8	-0.03215292
147	0x3ded3d4c	0.11583957
148	0xbde209de	-0.11037038
149	0xbb8b063f	-0.004242688
150	0x3db99502	0.09061624
151	0x3dade962	0.0849178
152	0x3de3c9f0	0.11122501
153	0x3cab16a8	0.020884827
154	0xbd940767	-0.072279744
155	0x3d747055	0.05967744
156	0xbca513f0	-0.020151109
157	0x3e26a7d3	0.16274957
158	0xbe10de15	-0.14147218
159	0xbd2913a4	-0.041278496
160	0x3c5b20b4	0.013374496
161	0xbd82b9e8	-0.06383115
162	0x3d75ae34	0.059980586
163	0x3ddc4120	0.10754609
164	0x3e1d406e	0.15356609
165	0x3e24f54b	0.16109197
166	0x3e0c4bf2	0.13700846
167	0x3c5a94ce	0.013341142
168	0x3c6529c9	0.013987013
169	0xbdce6164	-0.100771695
170	0x3d1380bc	0.036011443
171	0x3d55af8c	0.052169368
172	0x3d484005	0.04888918
173	0x3e04fd71	0.12987305
174	0x3dcc2102	0.09967233
175	0xbd48b3a8	-0.04899946
176	0x3aae306e	0.001328958
177	0x3d940f5e	0.072294936
178	0xbad58080	-0.0016288906
179	0x3dbd6da3	0.09249427
180	0xbc1cc3ea	-0.009568194
181	0x3bbf168b	0.0058315448
182	0x3cccdddd	0.025008136
183	0xbdc10964	-0.09425619
184	0x3d3fbc1c	0.046810254
185	0xbd300ca9	-0.042980824
186	0x3db67c6a	0.08910449
187	0xbd8d6fbc	-0.06906077
188	0x3dc05d68	0.09392816
189	0xb9c8a4c9	-0.00038269747
190	0x3dd0f162	0.1020229
191	0x3e1c229b	0.15247576
192	0xbdf4bf66	-0.11950569
193	0x3d748d48	0.05970505
194	0xbd45d7b4	-0.048301414
195	0xbd26bf70	-0.040709913
196	0xbde6aff0	-0.11264026
197	0xbd02e608	-0.031957656
198	0xbdfded64	-0.12398794
199	0x3da49b02	0.08037378
200	0xbdc3a99e	-0.09553836
201	0xbd952118	-0.07281703
202	0x3d83ba82	0.06432058
203	0x3d9a7c2a	0.07543214
204	0x3caf4678	0.021395907
205	0x3c5b84e0	0.013398379
206	0x3bd03700	0.0063542128
207	0xbad9d880	-0.0016620308
208	0xbdbd4a4c	-0.09242687
209	0xbd648e14	-0.05579956
210	0xbc6a3600	-0.014295101
211	0x3c73a490	0.014870778
212	0xbddbb9b0	-0.107287765
213	0xbd9f6f52	-0.077849045
214	0xbdc4b77c	-0.09605309
215	0x3cf8b8a8	0.030361488
216	0xbdb25b44	-0.08708814
217	0x3c538e70	0.012912378
218	0x3d8f9a5a	0.07011862
219	0xbdca2cae	-0.09871803
220	0xbd0e24a0	-0.034702897
221	0x3c08c9a0	0.008348852
222	0xbce45c90	-0.027876168
223	0xbd09d93c	-0.033654436
224	0x3da3f2da	0.08005305
225	0x3dc08b02	0.09401514
226	0x3dedc486	0.116097495
227	0xbcfe9668	-0.031077579
228	0xbdf42728	-0.11921531
229	0x3ddbe3dc	0.1073682
230	0xbbcbb8e0	-0.006217107
231	0xbd5a2df4	-0.05326648
232	0xbc9ce958	-0.019154236
233	0x3cff1220	0.031136572
234	0x3cfb3b18	0.030667827
235	0x3cd8d488	0.02646853
236	0xbcc4a4d8	-0.024004385
237	0x3bdb73e0	0.006697163
238	0x3d49d5b8	0.049276084
239	0xbd463134	-0.048386768
240	0x3db71e24	0.08941296
241	0xbd164d58	-0.036694854
242	0xbda74516	-0.08167474
243	0x3d8347b0	0.06410158
244	0xbd137144	-0.03599669
245	0x3da0e5d2	0.07856335
246	0x3d72b6d8	0.059256405
247	0xbd516648	-0.051122934
248	0xbd99229c	-0.07477304
249	0x3d3a9ba0	0.04555857
250	0xbdce09e8	-0.10060483
251	0x3dbfff7c	0.09374902
252	0x3dc500ec	0.096193165
253	0xbdbb6932	-0.09150924
254	0xbde75676	-0.11295788
255	0xbdfe5c46	-0.124199435

bias f4 [64]
0	0x3d9c4d22	0.076318994
1	0x3da6e125	0.08148412
2	0x3e0fd6b3	0.14046745
3	0x3db01132	0.0859703
4	0xbdbe8aba	-0.09303804
5	0x3df9fd29	0.122064896
6	0xbdd4c672	-0.10389413
7	0xbdc18a0e	-0.0945016
8	0x3c35261c	0.011056449
9	0xbd34e9dc	-0.04416834
10	0x3bc744e0	0.0060812086
11	0x3ce635b8	0.028101787
12	0x3d9ba83c	0.076004475
13	0x3d541ac0	0.051783323
14	0x3d4aee90	0.049543917
15	0x3daf2977	0.08552831
16	0x3a7ab50a	0.000956372
17	0x3e0894da	0.13338032
18	0xbdba9b20	-0.09111619
19	0xbd7b8a7f	-0.061411377
20	0xbd944411	-0.07239545
21	0xbdb95d29	-0.09050972
22	0x3db27d1f	0.08715271
23	0xbdbabd74	-0.091181666
24	0x3d520c94	0.051281527
25	0xbc88bbbf	-0.016691087
26	0xbbef0ca0	-0.007295206
27	0xbcf33f30	-0.029693216
28	0x3d8a8a88	0.06764704
29	0xbcc49a60	-0.023999393
30	0xbd62cb44	-0.05536963
31	0x3df6ef3b	0.12057348
32	0xbdffa9cc	-0.12483558
33	0x3e028869	0.12747349
34	0x3d8957a6	0.06706171
35	0x3d7b97c7	0.061424043
36	0x3e088ff4	0.13336164
37	0x3d9b044a	0.075691774
38	0xbe0197c3	-0.12655549
39	0xbda71bbb	-0.08159586
40	0x3e1e3484	0.1544972
41	0xbd8be798	-0.068312824
42	0x3dd615fe	0.104534134
43	0xbd09ae74	-0.033613637
44	0x3dbb0a1a	0.09132786
45	0xbc9d95f0	-0.019236535
46	0x3e022103	0.12707905
47	0x3e20b096	0.15692362
48	0xbda61a26	-0.08110456
49	0x3d598d18	0.053113073
50	0xbcced332	-0.02524719
51	0x3d86295a	0.06550856
52	0x3da0c992	0.078509465
53	0x3db52870	0.088456035
54	0xbc8778ed	-0.016537154
55	0x3d424c9c	0.04743634
56	0xbdcdef89	-0.10055453
57	0x3e052946	0.13004026
58	0x3d45a13c	0.04824947
59	0x3c8a308e	0.016868856
60	0xbdd9b474	-0.10630122
61	0xbc15ead3	-0.009150225
62	0x3c984af8	0.018590435
63	0xbd669fd4	-0.056304768

weight f4 [8, 64]
0	0x3d601ea4	0.05471672
1	0xbc75f6a0	-0.015012413
2	0x3b62fc9b	0.0034635428
3	0xbdf9c09a	-0.12194939
4	0x3cc9a218	0.024613425
5	0x3e189d7f	0.1490383
6	0xbd309888	-0.043114215
7	0xbdeaf69e	-0.1147282
8	0x3c87c5a2	0.01657373
9	0xbda9c3d7	-0.082893066
10	0x3d04b9e4	0.03240384
11	0xbdf25092	-0.11831774
12	0xbd07bc58	-0.033138603
13	0x3d34d2f7	0.044146504
14	0xbc655f50	-0.013999775
15	0x3dab2918	0.083574474
16	0x3cb445e2	0.022005979
17	0x3df9a179	0.121890016
18	0xb9c6addb	-0.00037895035
19	0xbdddbb82	-0.1082678
20	0x3d9ad9f4	0.075611025
21	0x3d137c33	0.036007117
22	0x3dfc0a1c	0.12306616
23	0xbde98419	-0.11402149
24	0xbdce997f	-0.10087871
25	0xbcce8de7	-0.025214149
26	0xbdd9dac6	-0.10637431
27	0x3dfc04a2	0.12305571
28	0x3a236a00	0.0006233752
29	0xbc704de0	-0.014667004
30	0xbd8dae78	-0.06918043
31	0x3d2d688c	0.04233603
32	0x3d4fe6ec	0.050757334
33	0x3cceeb62	0.025258724
34	0x3b73379d	0.0037112006
35	0x3e0337f5	0.12814315
36	0x3cdbb2fc	0.026818745
37	0x3d7a46b4	0.061102584
38	0xb6973865	-4.506716e-06
39	0x3d38be16	0.045103155
40	0x3e0509ab	0.1299197
41	0x3dfc1394	0.12308422
42	0xbdb00350	-0.08594382
43	0x3a222b00	0.0006186217
44	0xbd948746	-0.07252364
45	0x3da40262	0.08008267
46	0x3e23d9fe	0.16001126
47	0x3dcd30a0	0.1001904
48	0x3e2fea01	0.17179109
49	0x3d1131c7	0.035447862
50	0xbd980558	-0.07422894
51	0xbde3ce12	-0.11123289
52	0xbc804d20	-0.015661776
53	0xbdc0e514	-0.09418693
54	0x3dc3c46c	0.09558949
55	0xbca12c33	-0.019674396
56	0x3e035a4f	0.12827419
57	0xbc3b2f12	-0.011424797
58	0x3d7f5fd0	0.062347233
59	0xbdbb0442	-0.091316715
60	0xbc820c1a	-0.015874911
61	0x3d9f51c3	0.07779267
62	0xbbcff560	-0.0063463897
63	0x3e151549	0.14558901
64	0x3ddf419a	0.109011844
65	0x3d907de2	0.0705526
66	0x3e1623b6	0.1466206
67	0x3deac0a0	0.114625216
68	0x3ddd2f54	0.10800043
69	0x3d63365d	0.055471767
70	0x3c8b0a58	0.016972706
71	0xbdea358a	-0.11435993
72	0xbde04874	-0.10951319
73	0xbd2f6b29	-0.042826805
74	0x3dfe0e9a	0.12405129
75	0x3d83e8f4	0.06440917
76	0x3d166d2c	0.03672521
77	0xbd8d5923	-0.06901767
78	0xbd9ef4f2	-0.07761563
79	0x3e1131d1	0.1417916
80	0x3cefe87c	0.029285662
81	0x3b39ecb8	0.0028369855
82	0x3a013b12	0.00049297616
83	0xbcd7f64e	-0.026362564
84	0x3c68f4f9	0.014218562
85	0xbc4dc676	-0.012559524
86	0x3c4157c3	0.011800709
87	0x39370841	0.00017455315
88	0xbb61c28b	-0.0034448232
89	0xbdd4ffbb	-0.10400339
90	0x3df46180	0.11932659
91	0xbd1c3598	-0.03813705
92	0x3d12d930	0.035851657
93	0xbdf76af8	-0.120809495
94	0x3c30e4b0	0.010796711
95	0x3d29a2d3	0.041415047
96	0xbd9d227a	-0.076725915
97	0x3daa3548	0.08310944
98	0x3da170b5	0.07882825
99	0x3dfb9a26	0.12285261
100	0x3e13f4ed	0.144489
101	0x3d39a724	0.045325413
102	0x3d2bce5b	0.041944843
103	0x3e241794	0.1602462
104	0x3db947f0	0.09046924
105	0xbd848718	-0.064710796
106	0x3cf2a6f8	0.029620633
107	0x3cc098f8	0.023510441
108	0x3da8bfb4	0.082396895
109	0x3cbd1ba0	0.023084462
110	0xbb1d03d4	-0.002395858
111	0x3c4ea978	0.012613647
112	0xbd64f034	-0.055893138
113	0x3e2b21cb	0.1671211
114	0x3e06187b	0.13095276
115	0xbdb30cf6	-0.087427065
116	0xbcba3ae8	-0.022733167
117	0xbd489910	-0.048974097
118	0x3e2f0174	0.17090398
119	0xbdde40a4	-0.10852173
120	0xbd6e6f37	-0.05821153
121	0xbd15c478	-0.03656432
122	0xbd7e656c	-0.062108442
123	0xbdde7d49	-0.1086374
124	0xbd552021	-0.052032594
125	0x3dc5a5ba	0.096507505
126	0xbd33df4c	-0.043914124
127	0x3d84eace	0.06490098
128	0xbce198d8	-0.027538702
129	0x3d3d2330	0.046176136
130	0xbd5f2ba0	-0.054484963
131	0xbde008a0	-0.10939145
132	0x3db01718	0.08598155
133	0xbde99142	-0.11404659
134	0xbdad3e94	-0.084592015
135	0xbdbfd04c	-0.09365901
136	0x3d8e3b6c	0.069449276
137	0xbd417280	-0.047228336
138	0xbd4946a8	-0.04913965
139	0x3d832ea8	0.06405383
140	0xbdc3c9c4	-0.09559968
141	0xbd1d45fc	-0.03839682
142	0x3dcc4248	0.0997358
143	0xbdf862bc	-0.12128207
144	0xbd403084	-0.046921268
145	0x3d784eac	0.060621902
146	0xbddb7262	-0.10715176
147	0x3d32f55c	0.043691024
148	0xbd6173f4	-0.055042222
149	0xbdbb02ea	-0.09131415
150	0xbd920186	-0.07129197
151	0x3db75ac4	0.08952859
152	0xbcb33f98	-0.02188091
153	0xbda851ca	-0.08218725
154	0xbcdc0e28	-0.026862219
155	0x3d8bf628	0.0683406
156	0x3ce9e250	0.028550297
157	0x3ceda820	0.029010832
158	0xbd3e6938	-0.046487063
159	0xbd464d60	-0.048413634
160	0xbd012d8c	-0.031537578
161	0x3da15546	0.07877593
162	0xbdc7d7a6	-0.097579286
163	0x3dec6696	0.11543004
164	0xbd46da40	-0.048547983
165	0x3d9b6646	0.075878665
166	0xbd1a5a94	-0.03768404
167	0xbdbee1d4	-0.09320417
168	0xbddc078e	-0.107436284
169	0xbde569a0	-0.11201787
170	0x3dba8fd8	0.09109467
171	0xbce52fe8	-0.027976945
172	0x3d2d4848	0.04230526
173	0x3de56a9c	0.11201975
174	0x3d4cbe3c	0.04998611
175	0x3cc35ef0	0.02384898
176	0x3cf3b668	0.029750064
177	0xbd8fc99a	-0.07020874
178	0x3dc734fe	0.09726904
179	0xbc3a56a0	-0.011373192
180	0x3cec5f88	0.028854147
181	0xbdcbf100	-0.099580765
182	0xbd3c2190	-0.045930445
183	0x3daaa278	0.0833177
184	0xbdd8ddc2	-0.10589172
185	0x3d75aeb0	0.059981048
186	0xbc809d60	-0.015700042
187	0x3ddd9710	0.108198285
188	0x3daf6e3c	0.085659474
189	0xbcdd4998	-0.027012631
190	0x3d37e328	0.044894367
191	0x3deac28e	0.114628896
192	0x3c8ae8d0	0.016956717
193	0x3cabf170	0.02098915
194	0x3cec56e0	0.028850019
195	0x3d16f0d4	0.036850765
196	0xbd923672	-0.07139291
197	0x3d9e45ec	0.0772818
198	0xbd145608	-0.03621486
199	0x3d4cef10	0.050032675
200	0x3aa8c600	0.0012876391
201	0xbdecb5b6	-0.11558096
202	0xbcc93500	-0.024561405
203	0x3d6ca6dc	0.057776317
204	0x3da137b0	0.0787195
205	0x3d6e24d4	0.05814059
206	0xbd210968	-0.03931561
207	0xbb1b9300	-0.0023738742
208	0xbdee2b76	-0.11629383
209	0xbdfb13a2	-0.12259604
210	0x3d4842e4	0.048891917
211	0x3df131ea	0.117770985
212	0xbdbf55da	-0.09342547
213	0x3d1301ec	0.035890505
214	0x3d556174	0.05209489
215	0x3dccb9e2	0.09996392
216	0x3da13db8	0.078731
217	0x3df2d620	0.11857247
218	0xbca31288	-0.019906297
219	0xbd53f940	-0.051751375
220	0xbc609400	-0.013707161
221	0x3d9715fc	0.0737724
222	0xbc736d60	-0.01485762
223	0xbdfe4788	-0.12415987
224	0xbcfd0730	-0.030887216
225	0xbd5068b0	-0.050881088
226	0xbcad2530	-0.021135896
227	0x3dcbb450	0.09946501
228	0x3ca90350	0.020631462
229	0xbdb7bd6e	-0.08971678
230	0x3d92025c	0.07129356
231	0x3d9dc178	0.07702917
232	0xbc1d25c0	-0.00959152
233	0xbd9d61b4	-0.07684651
234	0x3d4a5260	0.049394965
235	0xbdf86ff8	-0.12130731
236	0xbdc22798	-0.09480208
237	0xbcfeb0e8	-0.031090215
238	0x3dfdc540	0.12391138
239	0x3cf19ce0	0.02949375
240	0x3dc14f74	0.094389826
241	0xbda98b7c	-0.08278558
242	0xbdf13386	-0.117774054
243	0xbd45bbdc	-0.04827486
244	0x3dcd1a26	0.10014753
245	0x3c6407b0	0.0139178485
246	0xbdc6c8e2	-0.09706284
247	0xbdf3679e	-0.11884998
248	0xbaf75900	-0.0018871129
249	0xbdbd0ad0	-0.09230578
250	0xbdd8a2b2	-0.10577907
251	0xbd4e367c	-0.05034493
252	0xbdcacaf0	-0.099019885
253	0xbd1b6cc4	-0.037945524
254	0x3d6ccbc0	0.0578115
255	0xbd7435f4	-0.059621766

bias f4 [8]
0	0x3e0bc089	0.13647665
1	0xbb1e6328	-0.0024167988
2	0x3dd17f04	0.102293044
3	0x3d9dc556	0.077036545
4	0x3d4a0627	0.049322274
5	0x3e009554	0.12556964
6	0x3c3cf3b5	0.011532714
7	0xbd92a798	-0.07160872
